model_training/spikeball.tflite (tflite, 77704 bytes, 8 tensors)

arith.constant f4 [16]
000000 4d 79 e7 bc eb 37 9c bc c4 82 e0 3b e0 53 61 3d
       -0.028256083 -0.019069633 0.006851526 0.05501163
000010 f6 ac 2d bd 97 23 da bc d5 2d 7b bc 6a c0 28 bd
       -0.042401277 -0.026628299 -0.015330751 -0.041199125
000020 a1 1c 01 bc 07 61 05 3d dc 72 92 3b ad 8d 37 bd
       -0.007880361 0.032563236 0.0044692587 -0.044812847
000030 3c 59 9a 3d 9f 4a 24 bc e7 72 10 bd ee 0e f5 ba
       0.07536551 -0.010027557 -0.03526583 -0.0018696466

arith.constant1 f4 [8]
000000 cf 7d 1d bc 60 42 66 3d d5 53 d4 bb b2 1b a5 3b
       -0.009612515 0.056215644 -0.00647972 0.005038702
000010 74 9d b8 bb 68 6b e9 3c a0 01 78 3b 95 4e fc 3b
       -0.0056340043 0.028493598 0.0037842765 0.0076997974

arith.constant2 f4 [16, 4, 1, 8]
000000 1e 9f 39 be ad 69 40 3e b8 74 b1 be 3f 06 bc bd
       -0.18127105 0.18790312 -0.34659362 -0.09180879
000010 1f eb 52 3e 4d ff 7d 3e a9 a0 85 3d 93 7c 2a 3e
       0.20597504 0.24804421 0.06524784 0.16649084
000020 31 95 79 be e1 29 64 3e c1 bd b2 3d 5b 8b 8e 3e
       -0.24373318 0.222816 0.08727599 0.27840695
000030 49 2e 7f 3e 38 04 eb 3e 7f 3c 3b be b4 37 21 3e
       0.2492 0.45901656 -0.18284796 0.15743905
000040 52 6b 5a 3e 94 8b 70 be 08 aa 37 3e 69 1a 6b 3e
       0.21330002 -0.23490745 0.17935956 0.22959293
000050 5e a7 13 be 59 f7 67 be b2 5d 6a bb 83 8a 05 3e
       -0.14419314 -0.2265295 -0.0035761413 0.1304112
000060 e9 5f 07 3e 0c 3f 8c 3d a5 8e 96 be ec fd 19 3e
       0.1322018 0.06847963 -0.29405704 0.1503827
000070 48 36 27 3d 5c 73 b3 3e f7 ea f2 bd 6b 76 3b 3e
       0.04082325 0.3504895 -0.11861222 0.18306892
000080 8d 6b 4b 3e e0 d2 d0 3d fb 89 07 3e 8f 82 ab 3d
       0.19865246 0.10196471 0.13236229 0.083745115
000090 07 bd 4f bd 09 aa cf 3e 4e ec 37 be 75 21 d8 3e
       -0.05071738 0.40559414 -0.17961237 0.42213026
0000a0 be 2a 9a be c3 c6 06 3e 1a 67 66 be d3 bd 6d 3d
       -0.30110735 0.13161759 -0.22500268 0.05804236
0000b0 f7 15 b3 be e3 ad 2c be 00 e1 57 3d 9e ec d2 be
       -0.34977695 -0.16863208 0.05270481 -0.4119615
0000c0 c9 ff c5 3e 5e db d6 3a a0 5b 21 be 30 65 1b 3e
       0.3867171 0.0016392281 -0.15757608 0.15175319
0000d0 eb f9 67 3e 5d 7e dd bd 74 18 93 3d 66 95 aa 3e
       0.2265393 -0.108151175 0.071823984 0.33317107
0000e0 35 f4 33 3d 61 4d 7e 3c c2 87 88 be 69 3f bd 3e
       0.043934066 0.015521378 -0.26666075 0.3696244
0000f0 18 76 f9 3d e8 a6 db bd a8 4b 79 3e f5 1c 35 be
       0.12180728 -0.10725194 0.24345267 -0.17686827
000100 65 fd 6c be 0d 5e 33 bd 34 03 27 be db 59 b3 3d
       -0.23143537 -0.043790866 -0.16309816 0.08757373
000110 0e 91 df bd a9 15 b0 3d b8 44 0d be bd ac b8 bd
       -0.10916339 0.08597881 -0.13795745 -0.09017322
000120 66 b2 e1 bd bb b1 ae 3d 6f 98 de bd ce c3 c5 3d
       -0.11020355 0.08529993 -0.10868918 0.096564874
000130 ac e5 31 3e 8c de 2a 3d 20 10 8d 3e e2 4a cf bd
       0.17372769 0.041716143 0.27551365 -0.10121705
000140 a1 c8 7e 3e 48 04 ca bc 0a 70 0e be 01 14 e7 bd
       0.24881221 -0.024660245 -0.13909927 -0.11283112
000150 fe a4 d7 bd 31 52 db bc 66 bd 30 3d d9 16 40 be
       -0.10529517 -0.02677259 0.043149374 -0.18758716
000160 b3 05 8b bd ae 71 f1 3d 93 dc 81 3e c7 2f 6c 3b
       -0.067881964 0.11789261 0.25363597 0.003603922
000170 e6 e9 ab bd 6a 77 de 3e a4 d3 af be 60 88 0d 3f
       -0.08394222 0.4345048 -0.34341156 0.55286217
000180 42 d9 f1 be 71 db 3b 3d 27 73 41 be 98 69 00 3e
       -0.47236067 0.045863573 -0.18891583 0.12540281
000190 ae 55 11 3c cd 64 8c bd 56 e7 60 be 89 70 50 be
       0.008870525 -0.06855164 -0.21963248 -0.20355429
0001a0 60 5f 4c be 63 43 fa 3c 7c c5 96 3e 7e 1f 7b be
       -0.19958258 0.03054971 0.29447544 -0.24523732
0001b0 24 00 74 3e 18 37 67 be cc 4b a9 3e 88 da 3b be
       0.23828179 -0.2257961 0.3306564 -0.18345082
0001c0 a8 88 68 3e 1c 3b c8 3c b7 ca c4 bd 64 ec 4e be
       0.2270838 0.024442248 -0.09608977 -0.20207363
0001d0 97 8e f6 bc 40 85 84 be 46 8f 88 3e fe cd 83 be
       -0.030097289 -0.25882912 0.2667181 -0.25743097
0001e0 64 fe 94 be 89 c2 2d 3e 86 24 80 3d 28 cd 10 be
       -0.29100335 0.1696874 0.06256966 -0.14140761
0001f0 a0 7c 13 3c 94 70 ed bd 31 2a 88 3d 70 3e 9c 3e
       0.009001881 -0.11593738 0.06648672 0.30516386
000200 7b da 76 3e 0b f0 2d 3e f5 7f 9e bd 49 9a 42 be
       0.24106781 0.169861 -0.077392496 -0.19004168
000210 87 90 3a 3e 37 4a 76 bd 01 42 22 be d5 43 3d bd
       0.18219195 -0.06012937 -0.15845491 -0.046207268
000220 20 c5 43 3e ba fd 04 be f9 de 52 3d e1 c9 a5 bd
       0.19118166 -0.12987414 0.051482175 -0.08095146
000230 b9 0e 12 bf d8 fc de bd 90 a5 9c 3e f5 9b 3a 3e
       -0.57053715 -0.1088807 0.30595064 0.18223555
000240 b2 96 17 3f ed 0b 2b be 57 94 23 3e d5 65 cc 3e
       0.5921432 -0.16703768 0.15974556 0.39921442
000250 39 2e 01 3e 24 3a 85 3e 1a 4e 67 3d ef 0f 18 bd
       0.12615289 0.2602092 0.056470968 -0.03712457
000260 87 c9 97 bd 60 45 98 be 79 6e a8 3c c4 97 f1 3e
       -0.07411485 -0.2974043 0.02056049 0.471861
000270 61 84 97 3e 92 80 89 3e 97 ab a8 bd d0 7b 0a bd
       0.29593185 0.26855904 -0.08235853 -0.033809483
000280 db 88 1a be e3 43 fd bd 0e 07 60 3e e9 7c 0a 3e
       -0.15091269 -0.12366464 0.21877691 0.13524212
000290 a8 ab 58 be f4 ac 20 be 11 33 9f 3e 64 2e 2f be
       -0.21159232 -0.15690976 0.31093648 -0.1710754
0002a0 c2 a7 7d bc 5d fc 4e be 9f cd c6 bd 99 a4 98 be
       -0.015481891 -0.20213456 -0.09707188 -0.29813078
0002b0 be 56 14 3e 54 bd 49 bd de bf e1 3c ab ac 81 3e
       0.14486215 -0.049252823 0.02755731 0.25327048
0002c0 27 99 9e 3e 0e e6 89 3e 60 8f 9a 3e 38 9d 90 3e
       0.3097622 0.2693333 0.3018751 0.28244948
0002d0 b6 da 89 3e af 0f a8 3e 5b df 19 3f 97 10 1c 3e
       0.26924676 0.32824466 0.6010644 0.15240704
0002e0 ec 64 6b bd 59 e9 9b be db 94 e8 bd 48 ce 6b be
       -0.057469293 -0.30451468 -0.11356517 -0.23027909
0002f0 86 85 08 bd 5f 8b 86 be a0 84 b9 3d 0e 38 b5 3c
       -0.033330463 -0.26278207 0.09058499 0.022121456
000300 6d f3 7b bd f5 37 88 3e 27 68 44 be 4c 08 8b be
       -0.061511446 0.26605192 -0.19180356 -0.27154768
000310 34 fc 10 3d ff 63 99 3e 90 ca 6a be d1 3b ba bd
       0.03539677 0.29959103 -0.22928834 -0.0909344
000320 3d 66 15 bd 69 b3 cb 3e 04 d8 3d be 4f 2e 8e be
       -0.036474455 0.39785317 -0.18539435 -0.27769706
000330 fe fb 4e be f9 fa a5 3d 53 6f 35 3d 7c dc d2 bd
       -0.20213315 0.0810451 0.04429562 -0.1029596
000340 52 9e 7c 3e 0b 95 4d 3e b1 a3 16 3e f1 b6 fb 3d
       0.2466977 0.20076387 0.14710881 0.12290753
000350 f9 13 1a 3e 5d 1f c5 3e 6b 6b c3 3d 17 6d 9f 3e
       0.15046681 0.3850049 0.09541973 0.31137916
000360 0f a4 00 3e 69 a4 08 3e ed 1f 1b 3e 20 52 57 3e
       0.12562583 0.13343967 0.15148897 0.21027422
000370 51 fa e7 bd f3 e3 b5 bc 74 ea 88 3e ef 7d 5b be
       -0.11327041 -0.022203421 0.26741374 -0.21434759
000380 24 10 91 3d 6b 76 3f 3d 64 b9 f3 bb 20 34 38 be
       0.07083157 0.04674379 -0.007437872 -0.17988634
000390 69 52 b8 3e 8e 34 88 be eb ab bb 3e 23 bf 8d 3e
       0.36000374 -0.26602596 0.366546 0.27684888
0003a0 07 57 96 3e e0 44 73 3e 38 c8 0c be 1f b0 c7 3d
       0.29363272 0.23756742 -0.13748252 0.09750389
0003b0 84 e4 1a bf 11 61 51 be 98 7f c0 3d 19 28 44 3e
       -0.6050494 -0.20447184 0.093993366 0.19155921
0003c0 7b 8f a4 3e c4 da c2 be 97 d1 35 ba 23 58 c3 3e
       0.32140717 -0.3805753 -0.00069358334 0.3815318
0003d0 58 68 83 3e 42 9d 75 3e ff 75 0b be 42 79 a2 bd
       0.25665545 0.2398577 -0.1361923 -0.07933284
0003e0 95 19 cf bd a5 86 93 3e fb 8f 1b 3d b4 6b 01 3f
       -0.10112301 0.28813663 0.037979107 0.50554967
0003f0 82 f3 09 be af 59 28 3d ec 37 2f 3d 61 9e ab bd
       -0.13471797 0.041101154 0.04277794 -0.08379818

arith.constant3 f4 [8, 4, 3, 1]
000000 e4 b1 e0 be 67 4e 67 be 52 f9 33 3e a2 3f 01 bd
       -0.4388572 -0.22588502 0.17575577 -0.031554826
000010 ff 5e 17 3e bd c3 1f bf 4b fe 9c 3e 7c 77 7b be
       0.14782332 -0.6240805 0.3066276 -0.24557298
000020 13 f1 2a 3e b0 3c 9c bc de 57 75 3e 7d f1 e8 ba
       0.16693525 -0.019071907 0.239593 -0.0017772164
000030 d9 db c0 3e ff 8d 32 3e 9f 1b b9 3d e2 7c 96 3e
       0.3766773 0.1743698 0.090384714 0.29392153
000040 ef 0f b7 3e d5 40 d2 3e 22 e1 0f bc e1 12 e8 3d
       0.35754344 0.41065088 -0.008781703 0.11331726
000050 f9 a6 5b 3e 8f ed 5f 3e 81 8b a0 be 76 44 e6 3d
       0.21450414 0.21867965 -0.31356433 0.11243527
000060 82 5e 36 be dd f3 84 bd f7 b1 7c be 0d aa a7 bd
       -0.1780949 -0.06491826 -0.24677263 -0.081867315
000070 41 27 12 3e a6 2e b8 be 03 68 69 be 7b aa 7c bd
       0.14272787 -0.3597309 -0.22793584 -0.06168602
000080 61 2d 05 bf 8b 7a 9b be b3 dc 8d 3d 3f 54 d3 3d
       -0.5202237 -0.3036693 0.06926861 0.10318803
000090 90 6d bb be 81 15 f2 bd 19 d9 a7 be 32 27 18 3d
       -0.36607027 -0.11820508 -0.3278282 0.037146755
0000a0 3d 9f c4 3e df bf 56 be e3 24 36 3e 21 d0 34 be
       0.3840274 -0.2097163 0.17787509 -0.1765752
0000b0 f6 6a a1 3e 2d 78 b8 be d4 43 c8 3d fb 5c a0 be
       0.31526917 -0.36029187 0.09778562 -0.31320938
0000c0 59 57 67 be 7f 8c 6d 3d b6 19 c1 bd 79 7b 9a 3e
       -0.22591914 0.057995316 -0.09428732 0.30172327
0000d0 4c e7 2d be 64 0e a1 bd 71 57 80 3e 6d 1f b8 3e
       -0.16982764 -0.07864073 0.25066712 0.35961476
0000e0 68 74 d1 be d5 82 9f be ed e1 e9 be 32 a8 7e 3c
       -0.40909123 -0.31154504 -0.4568018 0.015543031
0000f0 e0 c9 9a 3e db e1 8b 3e d6 a2 89 be 48 48 d5 3e
       0.30232143 0.27320752 -0.26882046 0.4165671
000100 d2 b5 9c bd 17 d8 9b 3e fd 0f 56 3d 3c 24 b6 bb
       -0.07651867 0.304383 0.05226134 -0.0055585187
000110 00 15 99 be 79 4b c4 be b6 1e a2 3e c6 0a 09 3d
       -0.29898834 -0.3833883 0.31664056 0.03345754
000120 49 eb c1 3e 0d 40 83 3d 45 0c f8 be 50 15 93 be
       0.3787482 0.06408701 -0.4844686 -0.28727198
000130 1d 20 81 be a5 a1 4c 3d 3b 26 f3 bd c9 3f 8f be
       -0.25219813 0.049958844 -0.11872526 -0.27978352
000140 28 40 4a 3e a0 5f 05 3e ac 85 33 3e c4 f7 fb 3d
       0.19751036 0.1302476 0.1753146 0.12303117
000150 2e 24 09 3f 43 2d 57 be e9 71 82 3e b5 41 9b 3d
       0.5357083 -0.2101336 0.25477532 0.07580892
000160 37 f7 e1 be 4d c6 56 bd 28 9f 58 bd 04 dd 9b 3d
       -0.44133922 -0.052435208 -0.05288616 0.07610515
000170 f5 da 89 be 87 98 bc be 78 b1 f8 3e 7c 2e 8f be
       -0.26924863 -0.3683512 0.48572898 -0.27965152

arith.constant4 f4 [2, 16]
000000 5e b2 9e be bf ba 37 3f 43 9b 80 be e0 1f 51 3f
       -0.30995458 0.71769327 -0.25118455 0.8168926
000010 f7 d4 f2 be 25 c5 82 3e a5 8a be 3e 4e 38 e7 3e
       -0.47428104 0.25541034 0.37215152 0.45160145
000020 ab 28 31 3e 49 b5 a3 be 0b 24 0a 3e ff d8 8a 3e
       0.1730067 -0.31974247 0.13490312 0.2711868
000030 c9 29 e9 be 40 80 2f bf f5 dc 13 be cf 4b f7 3d
       -0.45539692 -0.6855507 -0.14439757 0.12075006
000040 14 26 9a be 2e 88 14 bf 36 dd 39 3f 84 f9 f5 3c
       -0.30107176 -0.58020294 0.72603166 0.030026205
000050 c7 79 ad 3d 4a 88 0f bf 9b b8 0b bc f4 dc 03 be
       0.08470493 -0.56067336 -0.0085279 -0.12877256
000060 3b 7d 1c bf f4 90 31 bf fd 6a 41 3f a0 ec 56 bf
       -0.61128587 -0.69361806 0.75553876 -0.8395481
000070 10 6c 3e 3f 45 4c 85 3e a2 03 10 3f 9f 9f 2f 3f
       0.7438364 0.26034752 0.56255543 0.6860294

arith.constant5 f4 [16, 1104]
000000 db 63 9d bd 4f 8b 25 bd 8d be a8 bd 08 cf 80 bd
       -0.076850615 -0.04041606 -0.0823947 -0.06289488
000010 20 8a 1b bd dd ee 83 bd 8c a4 1c bd 52 e2 78 3c
       -0.037973523 -0.06442044 -0.03824286 0.015190678
000020 34 da 96 3d 15 9e 71 3c 89 01 a9 bd 1b bd ba bd
       0.07365838 0.014747162 -0.08252246 -0.091181
000030 cc 62 c4 3c 57 04 32 bd f8 8d 2e 3d 9a 11 b5 bc
       0.023972891 -0.04346117 0.04261586 -0.02210312
000040 f2 28 88 bd e7 2f e6 bc b9 fd 32 3c 06 69 f7 bb
       -0.06648435 -0.028099013 0.01092475 -0.0075503616
000050 79 85 bc 3d f8 91 52 3c f5 11 50 3d a5 bd 02 3d
       0.092051454 0.0128521845 0.050798375 0.03191914
000060 c8 b3 3a bd b3 aa 9b 3d 6a 7d 4c 3d aa 56 1a 3d
       -0.04558161 0.07600918 0.04992429 0.037680306
000070 63 fe 96 3d 68 64 55 3c ff 27 b6 bc 5e 90 23 3d
       0.07372739 0.013024427 -0.022235868 0.0399326
000080 e7 8d 81 3d 0c 1d 46 bd ab 64 a9 bc f4 e4 d3 bd
       0.06325894 -0.048367545 -0.020677885 -0.10346404
000090 f2 fb 66 bd 47 2e f1 bd 07 3c 8a bd 89 8e b4 ba
       -0.056392618 -0.11776405 -0.067497306 -0.0013775389
0000a0 91 e2 dc 3b 87 13 d6 bc 6d 64 71 bd cc 91 c7 bd
       0.006740876 -0.026132358 -0.058933664 -0.097446054
0000b0 21 2c 36 3d 1c c6 64 bd a4 8f 6f 3d 9b e9 ba 3c
       0.04447568 -0.055852994 0.058486596 0.02281647
0000c0 d5 8a 67 bd 3f 47 b6 bc e5 6c 03 bb f1 87 8b 3d
       -0.056528885 -0.02225077 -0.002005392 0.06813038
0000d0 b5 40 56 bd 8c 79 b3 bd ac 4c 00 3d 1d b2 0b bd
       -0.052307803 -0.087634176 0.03132312 -0.03410541
0000e0 28 82 c3 bc 10 b1 5a bd 50 fa ba bc da 2d 08 bb
       -0.023865774 -0.053391516 -0.022824436 -0.0020779283
0000f0 65 1a 76 3c 3f d5 07 bd 93 ce b8 bb b5 57 60 3c
       0.015020941 -0.03316235 -0.00563986 0.013692786
000100 af f0 7f bd 02 85 70 3d dd 0d a6 3c 96 87 8a 3d
       -0.062485393 0.058720596 0.020270282 0.06764142
000110 27 ca 80 bd 05 2c c3 3d 0a d0 18 bd b2 8f 85 3c
       -0.062885575 0.095298804 -0.037307777 0.01630387
000120 46 04 76 3d 34 f9 ab 3d 19 6f 7c 3d f8 07 87 bd
       0.06006267 0.08397141 0.06162939 -0.06593317
000130 54 9f 9a bb aa 35 87 3d 6b ba 1f bd f3 a1 e1 bc
       -0.0047187004 0.066020325 -0.03899614 -0.027543044
000140 0d ea a8 bd 09 5f cf bc e4 5e a0 bb 92 00 0c bd
       -0.08247767 -0.025313871 -0.0048941243 -0.03418023
000150 00 2e 7e 3d 02 5e 2e 3c 96 7d f2 3c 00 9a fa 3c
       0.062055588 0.01064253 0.0296009 0.030591011
000160 18 74 99 3c 59 2d 7c 3d a4 7a 55 3d d0 86 61 bd
       0.018732116 0.061566684 0.052118912 -0.055060208
000170 55 a3 70 3d 7a c5 fa bc b1 94 47 bd 0f 04 c7 bd
       0.058749516 -0.030611742 -0.048725788 -0.09717571
000180 b4 5c 2c bd 73 14 b0 bd 63 06 c8 3c e2 1c bd bd
       -0.042080596 -0.085976504 0.024417108 -0.092340246
000190 87 69 24 bd 4b fc 26 3d cb 9f 80 bd 73 83 be bd
       -0.0401397 0.04076795 -0.06280478 -0.09302416
0001a0 53 56 d5 bc 4a 4c cb bd 1d 46 b3 bc e2 b6 fe 3c
       -0.02604214 -0.0992666 -0.021884019 0.031093065
0001b0 17 04 9b 3d 76 27 54 3d 93 61 95 bd 3a 08 37 3d
       0.075691395 0.051795445 -0.072940014 0.04468558
0001c0 aa 28 88 bd bd 24 f1 3c 7e 39 e9 3c 13 db 9f bc
       -0.06648381 0.029436463 0.028469797 -0.019513642
0001d0 74 9f 02 3d 31 f9 31 3d f8 47 94 bc 52 ad 3e 3d
       0.031890348 0.043450538 -0.018100724 0.04655201
0001e0 50 c7 29 bd 2f 5f d7 3d a8 3f 8a bd 1d fa 74 bd
       -0.041449845 0.10516202 -0.06750423 -0.05980884
0001f0 d4 00 91 bd 39 6c d9 bc 42 3f de 3d 82 17 a7 bd
       -0.07080236 -0.026540862 0.10851909 -0.08158781
000200 87 52 81 3d 6d 03 5e 3d 26 d2 46 3d ca 50 92 bc
       0.06314569 0.054202486 0.048540257 -0.017860789
000210 0a 72 11 bd ba 01 cc bd 78 19 93 3b 37 a5 51 3c
       -0.035509147 -0.09961267 0.00448912 0.012795738
000220 da eb a7 bd 52 53 1a 3d 40 fa cc 3c e4 eb 00 3c
       -0.08199282 0.037677117 0.025021672 0.007868741
000230 bc b8 29 bd de 9e 93 3d 32 bb 2b 3d 56 ec b2 bb
       -0.041435942 0.07208036 0.04192657 -0.0054603023
000240 dc f7 d9 3a 71 ff a2 3c 50 8c c0 bc 50 39 49 bc
       0.0016629654 0.019897195 -0.023504406 -0.012281731
000250 b4 ef c1 39 63 86 39 3d 52 80 e6 bb b6 a9 cb 3c
       0.0003699042 0.045294177 -0.00703434 0.024861198
000260 fc fd a0 bd 9d 34 cb bc 01 ae 9b 3d 51 34 20 bd
       -0.07860944 -0.024805361 0.07601548 -0.039112393
000270 0d 60 57 3c 66 aa e0 bd 15 19 f3 bb 84 6c 73 bd
       0.013145459 -0.10970001 -0.0074187615 -0.05942966
000280 36 e3 ba bc 13 55 0a 3d 92 0a 09 3d 5c e0 0a 3d
       -0.02281342 0.03377254 0.033457346 0.033905372
000290 8c 48 44 bd c8 b7 57 bd 2a ca 3e 3c 72 2b b1 bd
       -0.04792075 -0.0526655 0.011644879 -0.08650865
0002a0 20 eb 12 3c 95 de 8d 3d 0b c6 fd bb 75 38 8c bc
       0.008967191 0.0692722 -0.007744556 -0.017116765
0002b0 d9 70 d2 3c 01 96 be 3d 33 21 ff bc ae 19 18 bd
       0.025688576 0.09305955 -0.03114376 -0.037133865
0002c0 a2 c5 cf 3c 86 3e bc 3b 5e 7a 02 bd 73 a4 b3 3c
       0.025362793 0.005744758 -0.03185498 0.021929001
0002d0 bf 35 88 3c 63 6d 50 bd 0a 04 3b 3d bb ba af 3d
       0.01662719 -0.05088557 0.04565815 0.08580538
0002e0 dc 5e 86 bd 78 31 1a ba 16 57 5a bd ec 98 64 bd
       -0.06561062 -0.0005882005 -0.053305708 -0.0558099
0002f0 21 9e 37 bc 79 e1 bc 3d fc f0 5a bd e5 32 49 bd
       -0.011207134 0.09222693 -0.053452477 -0.049120802
000300 6e 34 97 3c 0f c2 ab 3d 85 04 24 3c d9 de b6 3c
       0.018457618 0.08386623 0.010010843 0.022323059
000310 0d 52 7c 3c a0 28 ac bb fb 29 d5 39 a6 dd a3 bd
       0.015400422 -0.0052538663 0.00040657804 -0.080012605
000320 ed 3e 2c 3c 42 92 fb 3d 31 91 66 3b 7d 77 1c bb
       0.01051305 0.12283756 0.0035181756 -0.0023874932
000330 8e e9 cb bb 5e 39 b3 bd 6c 30 17 bd 65 61 18 3d
       -0.0062229102 -0.08751176 -0.036911413 0.037202258
000340 0e 7e ed bb d2 8f 68 3c e3 71 21 3d 10 bc e9 bc
       -0.007247693 0.014194446 0.03941525 -0.028532058
000350 4b f1 2d 3c e8 3e 95 bc 7f 85 08 bc 65 48 71 3d
       0.010616611 -0.018218473 -0.008332609 0.05890693
000360 5b 57 18 3d b3 0e 3a 3d 37 85 80 3c e0 45 27 3c
       0.037192684 0.045424175 0.015688522 0.010209531
000370 a7 2a 31 bc 60 0c ff 3c b0 b7 6e bd d4 7d 91 3d
       -0.010813392 0.03113383 -0.058280647 0.07104078
000380 11 a8 e6 bb 70 f0 53 bd 8f 33 ac 3d 3e a3 51 bd
       -0.007039078 -0.05174297 0.084082715 -0.05118107
000390 66 72 e0 3c e4 60 72 bd 80 f0 d0 bc e0 1d 15 bd
       0.0273983 -0.059174433 -0.025505304 -0.036405444
0003a0 0b 3c f9 3a af c2 86 bc 69 78 03 bc 10 16 95 3c
       0.0019015087 -0.016450254 -0.0080243135 0.018198997
0003b0 7f a8 48 bc d0 32 25 3d df e7 55 bd 58 7f 31 bc
       -0.012247204 0.04033166 -0.052223083 -0.010833584
0003c0 e0 cb 94 bd ca 89 2c bd 04 55 c2 3d b2 fe 5e bc
       -0.072654486 -0.042123593 0.09488872 -0.013610529
0003d0 1b 85 48 3c b3 3b 51 3d 24 06 00 3d d2 3b 16 3d
       0.012238766 0.051082324 0.031255856 0.036678143
0003e0 0e a2 2f bd fb aa bb bc b7 1b c4 3d ed 86 4b bd
       -0.042879157 -0.022908678 0.09575599 -0.049689222
0003f0 5e fd 6d bd 4c 23 c6 3d 95 79 2c 3c 60 75 4a 3d
       -0.058102958 0.09674701 0.010527034 0.049428344

arith.constant6 f4 [16]
000000 45 52 18 bd ce ef 44 bc 41 f3 9a 3d e5 dd 93 3c
       -0.037187833 -0.0120200645 0.07565928 0.018050143
000010 50 93 07 bd cb 75 c6 bb f5 f6 ba bc c9 4a 2a 3b
       -0.033099473 -0.0060565225 -0.022822836 0.0025984517
000020 35 27 08 3c e1 bb 00 bc ff cc 6b 3d 6d af f9 3c
       0.008310129 -0.007857294 0.057568546 0.030479157
000030 84 c1 9a 3d 1c db c2 3d b9 c1 6c 3d bd bb 84 3d
       0.075564414 0.09514448 0.057801936 0.06481121

arith.constant7 f4 [2]
000000 88 07 b8 bd 8a 07 b8 3d
       -0.089858115 0.08985813
