model_training/spikeball.tflite (tflite, 77704 bytes, 8 tensors)

arith.constant f4 [16]
0	0x3d03ce64	0.03217925
1	0xbc85be79	-0.016326176
2	0xbc828d0f	-0.015936403
3	0xbd359305	-0.044329662
4	0x3ca081c0	0.01959312
5	0xbc8dfb84	-0.017331846
6	0xbd246cf1	-0.040142957
7	0x39a182d6	0.00030805793
8	0xbc22cdfd	-0.009936807
9	0xbd482baf	-0.048869785
10	0xbc9f55f9	-0.019450175
11	0x3c828c38	0.015936002
12	0xbccdf5ff	-0.025141714
13	0xbb660e95	-0.0035103906
14	0xbc1bf80b	-0.009519587
15	0xbc9cb098	-0.019127175

arith.constant1 f4 [8]
0	0x3a85c697	0.0010206279
1	0x3d0b51c6	0.034013532
2	0xbbfce922	-0.0077182213
3	0x3d0553c5	0.032550592
4	0xb96b473a	-0.0002243788
5	0xbc13b62c	-0.009015601
6	0x3c4f23be	0.012642799
7	0xbb8dcfaa	-0.004327734

arith.constant2 f4 [16, 4, 1, 8]
0	0x3d46ae65	0.04850616
1	0xbd92b3dd	-0.071632124
2	0xbd06f962	-0.032952674
3	0xbe8e513d	-0.27796355
4	0x3ee89520	0.45426273
5	0x3e245aa3	0.160502
6	0xbdf03923	-0.11729648
7	0xbd983ea6	-0.07433824
8	0x3e65edfb	0.22454064
9	0x3d02cf3a	0.031935908
10	0x3e0cbc51	0.13743712
11	0xbe5921f6	-0.21204361
12	0x3e38c445	0.18043621
13	0x3d41ba15	0.047296602
14	0x3e37829d	0.17920919
15	0x3e4b767a	0.19869414
16	0x3e858a9a	0.26082307
17	0xbd9e33c0	-0.07724714
18	0xbea63f18	-0.32470012
19	0xbdb57faa	-0.088622406
20	0xbe0dbbe1	-0.13841201
21	0xbd5b2cfb	-0.053509694
22	0xbdb85365	-0.09000281
23	0x3e85c13e	0.26123995
24	0xbc76c5a0	-0.015061766
25	0xbd042a61	-0.03226698
26	0x3c842034	0.016128637
27	0xbe78ae2d	-0.24285193
28	0xbc33803d	-0.010955867
29	0x3d9e8c32	0.07741584
30	0x3eb6db2b	0.35714087
31	0xbd024a1b	-0.031808954
32	0xbdb45125	-0.088045396
33	0x3e9f1ceb	0.3107675
34	0x3e00a1a3	0.1256166
35	0x3ea95957	0.33075973
36	0x3db542a3	0.088506006
37	0xbe42e5b2	-0.19032934
38	0x3dd0eb0b	0.10201081
39	0xbdd0f09c	-0.102021426
40	0xbe557496	-0.20845255
41	0x3dddd8a1	0.10832334
42	0xbe3f0a50	-0.18656278
43	0xbd0ba7fa	-0.03409574
44	0x3e273462	0.16328576
45	0x3de0d998	0.10979003
46	0x3b13ddcd	0.0022562623
47	0x3e316c91	0.17326571
48	0x3e776127	0.24158154
49	0xbd2646b1	-0.04059476
50	0xbe123bd5	-0.14280637
51	0xbe09e58d	-0.13466473
52	0xbe1549ae	-0.14578888
53	0xbd39742a	-0.0452768
54	0x3e9715a0	0.29508686
55	0xbccd2c82	-0.025045637
56	0x3e2a4928	0.1662947
57	0x3e8353af	0.25649783
58	0x3e274da5	0.16338213
59	0xbe0b047c	-0.1357593
60	0xbd569a77	-0.052393403
61	0xbd9a63ae	-0.07538544
62	0xbcd670b7	-0.026176794
63	0x3e5a7660	0.21334219
64	0x3e976489	0.2956889
65	0x3e10bc17	0.1413425
66	0x3de86246	0.11346869
67	0xbd173ed3	-0.03692515
68	0x3e543ac6	0.20725545
69	0xbe4627bb	-0.19351093
70	0x3d904724	0.07044819
71	0xbe89b1ac	-0.26893365
72	0xbe40d6d6	-0.18831953
73	0x3c91b38b	0.017785808
74	0x3e86d1e1	0.26332
75	0x3e10f576	0.14156136
76	0xbe5cf828	-0.21579039
77	0x3d9c2880	0.07624912
78	0x3d0f85c6	0.035039686
79	0xbdbcb8b1	-0.092149146
80	0x3d9e8f2f	0.07742154
81	0x3e880a65	0.2657043
82	0x3ec481ad	0.38380185
83	0xbd6178b1	-0.05504674
84	0x3e96d601	0.29460147
85	0x3ef361d9	0.4753559
86	0x3ea6b58e	0.3256039
87	0x3e55eb36	0.20890507
88	0x3e5a4110	0.21313882
89	0x3dc21712	0.094770566
90	0x3e1dc539	0.15407266
91	0xbe3aa00e	-0.18225119
92	0x3e128e3d	0.14312072
93	0x3e18202e	0.14856026
94	0xbe7a275c	-0.24429077
95	0xbe7e6012	-0.24841335
96	0xbb1c0dd2	-0.0023811948
97	0xbe6f82cc	-0.23389739
98	0x3d3ec085	0.04657032
99	0x3e1d64a9	0.1537043
100	0xbdeba1f2	-0.11505498
101	0x3e90086d	0.28131428
102	0x3e854e18	0.26036143
103	0x3c22a673	0.00992738
104	0x3e4bb570	0.19893432
105	0x3eb536ee	0.3539347
106	0x3ea55fa1	0.32299522
107	0xbc8713ea	-0.016488988
108	0x3dca8ad4	0.098897606
109	0x3e7d475b	0.24734251
110	0x3cee49b1	0.029087873
111	0xbd0c8c6d	-0.034313608
112	0x3ea79c0a	0.32736236
113	0x3e9b86a9	0.30376175
114	0x3eb4df15	0.35326448
115	0xbe19c6bd	-0.15017219
116	0x3dd89a27	0.10576277
117	0x3e8469b2	0.2586189
118	0xbd4d212f	-0.050080474
119	0x3daf8bad	0.08571563
120	0x3e9872cc	0.29775083
121	0xbe05dc74	-0.13072377
122	0xbe4e7212	-0.20160702
123	0x3e155a01	0.14585115
124	0x3de161d4	0.11004987
125	0x3e807f70	0.25097227
126	0xbe84f4bd	-0.2596797
127	0x3e28cc37	0.16484152
128	0xbc7195c6	-0.014745181
129	0x3e21d3f4	0.1580351
130	0x3ecdd3ea	0.4020074
131	0xbcbcb824	-0.023037024
132	0x3c9b32cf	0.018945126
133	0xbcd66653	-0.026171839
134	0x3e5b8a7d	0.21439548
135	0xbda58bee	-0.0808333
136	0x3e3ee341	0.18641378
137	0x3ed8abef	0.42318675
138	0x3cb1c032	0.021698091
139	0x3eb293bc	0.34878337
140	0xbe33db96	-0.17564234
141	0x3d42f537	0.047597136
142	0xbdbdc96d	-0.092669345
143	0xbe12ecda	-0.14348164
144	0x3e5dd083	0.21661572
145	0x3e32b96a	0.17453542
146	0xbdc7810f	-0.09741413
147	0xbe3175d7	-0.17330109
148	0xbe574d1e	-0.21025512
149	0xbe2ff6b1	-0.17183949
150	0xbe3bee55	-0.18352635
151	0xbdd08a98	-0.10182685
152	0xbe663ce6	-0.22484168
153	0x3bb3578c	0.005473083
154	0xbccfa1c8	-0.025345698
155	0xbe8297c2	-0.25506407
156	0x3e09384d	0.13400383
157	0xbdcc037d	-0.09961603
158	0x3da5a90f	0.08088886
159	0x3d309629	0.043111954
160	0x3e9ef1e0	0.3104391
161	0x3e9887a3	0.29790983
162	0x3e2ce176	0.16882882
163	0xbdf6cf1b	-0.12051221
164	0x3c8a9aff	0.016919611
165	0xbd764186	-0.06012108
166	0x3e28c5f0	0.16481757
167	0x3e36b53a	0.1784257
168	0xbe9d7083	-0.30749902
169	0xbe1709aa	-0.1474978
170	0x3e6a2cc9	0.22868647
171	0xbe4ea1d6	-0.20178923
172	0x3dd08d1f	0.10183167
173	0x3e5b191c	0.21396297
174	0xbe28930e	-0.16462347
175	0x3b052768	0.0020317677
176	0x3daac496	0.08338277
177	0x3e2948b3	0.16531639
178	0x3e860657	0.26176712
179	0x3e9de026	0.30835074
180	0x3d72239d	0.059115995
181	0x3cfebf66	0.031097125
182	0xbdffef04	-0.124967605
183	0xbeb0fa74	-0.3456608
184	0xbe01c02a	-0.12670961
185	0x3e1ae3c1	0.15125944
186	0x3e651c1a	0.22374001
187	0xbe114da8	-0.1418978
188	0x3e91da89	0.28487042
189	0x3df2a451	0.11847747
190	0xbd31847f	-0.04333925
191	0x3e65d101	0.2244301
192	0xbd851df9	-0.064998575
193	0xbe18ff25	-0.1494108
194	0x3e8444b0	0.25833654
195	0x3da5b16a	0.0809048
196	0x3df0657a	0.11738105
197	0x3e8a11ff	0.26966855
198	0x3e5683e4	0.2094875
199	0x3e8cc6fd	0.27495566
200	0xbd708a09	-0.05872539
201	0x3e57f83b	0.21090786
202	0xbe09e48e	-0.13466093
203	0x3d99d638	0.07511562
204	0x3c13cb91	0.009020702
205	0x3bebe178	0.007198509
206	0x3e6e405c	0.23266739
207	0xbdf88c28	-0.12136108
208	0x3e3d8aa7	0.18509923
209	0x3e88f3ba	0.2674845
210	0x3d9032e7	0.07040959
211	0x3df994fd	0.121866204
212	0x3dcb97a7	0.09941035
213	0x3e03df14	0.12878066
214	0x3e1583e3	0.14601092
215	0x3dc3ed7d	0.09566782
216	0x3e4d5d21	0.20055057
217	0xbe2f5d2d	-0.17125387
218	0x3e448f6d	0.19195338
219	0xbc432423	-0.011910471
220	0x3d6ba49e	0.057530038
221	0xbcf83cba	-0.030302394
222	0x3ca76ca4	0.020437546
223	0x3e1b0969	0.15140308
224	0xbe040170	-0.12891173
225	0x3d2b4871	0.041817132
226	0x3a45b578	0.00075419946
227	0x3e0fcfdf	0.1404414
228	0xbd550199	-0.052003477
229	0xbdce66cc	-0.10078201
230	0xbe8b2e87	-0.27183935
231	0x3def1654	0.116741806
232	0x3e9cdd83	0.3063775
233	0x3e99169e	0.29900068
234	0xbea9ef4e	-0.33190387
235	0x3e9bf888	0.30463052
236	0xbdf30a2f	-0.11867177
237	0xbe251214	-0.16120178
238	0xbe0c56e4	-0.13705021
239	0xbe81443b	-0.25247368
240	0x3ec8d316	0.39223546
241	0x3e9fc1ee	0.31202644
242	0x3e2be2bc	0.16785711
243	0xbbf62657	-0.0075118947
244	0xbdae1875	-0.085007586
245	0x3c79ba74	0.015242208
246	0xbda70368	-0.081549466
247	0x3e444f26	0.19170818
248	0xbce43452	-0.02785698
249	0xbe45077c	-0.19241136
250	0x3dfd7d95	0.123774685
251	0xbe5132d6	-0.20429549
252	0x3eb499c6	0.3527357
253	0xbced50aa	-0.028969128
254	0x3e04e098	0.129763
255	0x3eb7c957	0.35895798

arith.constant3 f4 [8, 4, 3, 1]
0	0xbebb4cd3	-0.3658205
1	0xbe17822f	-0.14795755
2	0x3c8c485e	0.017124351
3	0x3e84a136	0.25904244
4	0xbc2925f8	-0.010323994
5	0x3e291de0	0.16515303
6	0x3e94d936	0.2907197
7	0x3e3bad69	0.1832787
8	0xbea596cb	-0.32341608
9	0xbe0da502	-0.13832477
10	0xba11249a	-0.0005536765
11	0x3ddfe274	0.109318644
12	0x3edef7d9	0.43548468
13	0xbe585590	-0.2112639
14	0xbb8bc63c	-0.0042655747
15	0x3e925cdc	0.2858647
16	0x3dd7ac37	0.10530894
17	0x3ea689c0	0.3252697
18	0xbdb5cf77	-0.088774614
19	0x3e5e7a26	0.21726283
20	0xbe364a38	-0.1780175
21	0xbd6303f8	-0.055423707
22	0x3e25164d	0.16121788
23	0xbe933fe0	-0.2875967
24	0xbdeba2af	-0.11505639
25	0x3e3e1a89	0.1856481
26	0x3e8f10c2	0.27942473
27	0xbe439a5f	-0.19101857
28	0x3e95e138	0.2927339
29	0xbe881da0	-0.26585102
30	0xbde4442e	-0.11145817
31	0xbe6e1d22	-0.23253301
32	0x3a3de59f	0.0007243994
33	0x3eaad115	0.33362642
34	0xbe9fa720	-0.31182194
35	0xbd95fe45	-0.07323889
36	0xbe2d8b57	-0.16947685
37	0xbea2aa0d	-0.31770363
38	0xbe13fc1e	-0.14451644
39	0x3ea61de3	0.32444677
40	0xbeb20303	-0.34767923
41	0x3dfe11f3	0.12405767
42	0x3e9beb34	0.30452883
43	0xbdfe0bc9	-0.124045916
44	0x3db4f19d	0.088351466
45	0x3e7d8b90	0.2476027
46	0xbe06038c	-0.1308729
47	0xbdb3d6e7	-0.08781224
48	0xbc338531	-0.010957048
49	0x3e7d2ed5	0.24724896
50	0xbe82226e	-0.25416893
51	0xbe34d0c4	-0.17657763
52	0x3c717064	0.014736269
53	0xbe7ad829	-0.24496521
54	0x3e90b658	0.28264117
55	0xbe3a5a07	-0.18198405
56	0x3d9e35a0	0.07725072
57	0xbe2d9ac8	-0.16953576
58	0x3d831966	0.06401329
59	0xbd2af58f	-0.04173809
60	0xbddf0762	-0.1089008
61	0xbeb9f299	-0.363179
62	0x3ea6f0cb	0.32605585
63	0xbeb22201	-0.34791568
64	0x3d95b407	0.07309728
65	0xbeb16f55	-0.34655252
66	0xbe037c81	-0.12840463
67	0xbdc44481	-0.095833786
68	0xbea6b608	-0.32560754
69	0x3e4c19c4	0.19931704
70	0xbd9a8b99	-0.075461574
71	0x3e3f8c83	0.18705945
72	0xbe52e563	-0.20595317
73	0x3d598287	0.053102996
74	0x3e8daa0b	0.27668795
75	0xbe241384	-0.1602307
76	0x3d8c23d0	0.06842768
77	0xbed959cd	-0.42451325
78	0xbe36c325	-0.17847879
79	0x3e96e8f0	0.29474592
80	0x3e2b4631	0.16725995
81	0x3e82d59b	0.25553593
82	0x3e2de686	0.16982469
83	0x3e4b3643	0.19844918
84	0xbda55a91	-0.08073915
85	0x3e8929aa	0.267896
86	0xbebd0c37	-0.36923382
87	0xbe195f0f	-0.14977668
88	0xbd8deed2	-0.06930317
89	0x3e85ea26	0.26155204
90	0xbdf2406e	-0.11828695
91	0xbdd82c88	-0.10555369
92	0x3e496433	0.19667129
93	0xbe52fd4e	-0.2060444
94	0xbc18245f	-0.009286015
95	0xbe557ba1	-0.20847942

arith.constant4 f4 [2, 16]
0	0xbf1b116b	-0.6057345
1	0xbed7cd47	-0.42148802
2	0x3e166018	0.14685094
3	0xbf0c70a1	-0.5485936
4	0x3efdfdc2	0.49607664
5	0xbe4011fb	-0.18756859
6	0x3e44ab14	0.19205886
7	0xbf00af50	-0.50267506
8	0x3de107f7	0.10987847
9	0xbf02b8bc	-0.5106313
10	0x3edc508b	0.430302
11	0xbdd79011	-0.10525525
12	0x3f1268be	0.57191074
13	0x3f199d1f	0.6000537
14	0x3f36e2fe	0.7144011
15	0xbf22f915	-0.6366132
16	0x3eba6403	0.36404428
17	0xbdf1e2fd	-0.11810873
18	0xbf1af8d8	-0.60535955
19	0xbe126bb5	-0.142989
20	0xbee228a6	-0.44171637
21	0x3f08ba80	0.53409576
22	0xbec6f055	-0.38855234
23	0x3e48ec54	0.19621402
24	0xbe8a2fba	-0.26989537
25	0xbdbec95f	-0.09315752
26	0xbd30c6ac	-0.04315822
27	0xbf1affc9	-0.6054655
28	0x3e7c5703	0.24642567
29	0xbebd8cf7	-0.3702161
30	0xbe8393a6	-0.25698584
31	0xbe83ffc1	-0.25781062

arith.constant5 f4 [16, 1104]
0	0xbd99188a	-0.074753836
1	0xbcdc0cda	-0.026861597
2	0xbd6fe4b0	-0.058567703
3	0xbaf4d379	-0.0018678746
4	0x3d91eab9	0.07124848
5	0x3b425490	0.0029652454
6	0xbd8f6aa6	-0.070027635
7	0xbdef237a	-0.116766885
8	0x3d3c6b46	0.04600074
9	0xbc1c1cec	-0.00952838
10	0xba0afcb7	-0.00053019397
11	0x3d245a4a	0.04012517
12	0xbd3ddc95	-0.04635294
13	0xbc825051	-0.015907438
14	0xbd3dd6e0	-0.0463475
15	0xbd2626e5	-0.040564436
16	0xbd130d3b	-0.03590129
17	0xbb0eb80f	-0.0021777188
18	0xbdb2ba39	-0.087269254
19	0xbe0c680a	-0.13711563
20	0x3e690efc	0.22759622
21	0xbdd9e7b1	-0.10639895
22	0xbdeac8e8	-0.11464101
23	0xbd3bb38b	-0.045825522
24	0x3cadfdf9	0.021239268
25	0xbd566bfa	-0.05234907
26	0xbd911b31	-0.070852645
27	0x3c6acdc6	0.014331287
28	0xbdff879c	-0.12477037
29	0xbd1f87ab	-0.038947742
30	0xbdab8dfa	-0.08376689
31	0xbc5dc969	-0.013536789
32	0x3e8f5d4f	0.28000876
33	0x3deaa022	0.11456324
34	0xbc9400fb	-0.018066874
35	0xbe6db32b	-0.23212878
36	0x3de27787	0.11057954
37	0x3c434c0f	0.011919989
38	0xbcf4334f	-0.029809622
39	0xbd22f9de	-0.039789073
40	0xbc78941a	-0.015172029
41	0xbdc9f73f	-0.098616116
42	0xbd4eb03b	-0.050461035
43	0xbd9ebba3	-0.077506326
44	0xbe2076e8	-0.15670359
45	0xbe12b4f2	-0.14326838
46	0xbc0d7d8c	-0.00863589
47	0x3d7d4bcd	0.061839867
48	0xbd029250	-0.031877816
49	0xbb908657	-0.004410546
50	0xbd3ad787	-0.0456157
51	0xbdac4bc7	-0.08412891
52	0x3b809751	0.0039242883
53	0xbd516b63	-0.051127803
54	0xbceca7b1	-0.028888555
55	0x3d26bf22	0.040709622
56	0xbd1949bf	-0.037423845
57	0xbd8661b5	-0.06561605
58	0x3baa3c48	0.0051951744
59	0xbde8f255	-0.11374346
60	0xbb019f4b	-0.0019778784
61	0x3d2dbe53	0.042417835
62	0xbb938693	-0.0045021265
63	0xbcaf45b4	-0.021395542
64	0x3ca300d2	0.019897852
65	0xbd8eceee	-0.069730625
66	0x3d413faa	0.047179855
67	0xbd015ac4	-0.0315807
68	0x3d637e95	0.05554064
69	0x3c4c6e94	0.012477536
70	0xbd90ff12	-0.07079901
71	0x3dc7ace6	0.09749775
72	0xbd7a9509	-0.061177287
73	0xbc30a43b	-0.010781343
74	0xbc5279c6	-0.012846416
75	0xbdb18eb5	-0.08669797
76	0xbd891501	-0.06693459
77	0x38d95c88	0.000103646016
78	0x3cce955c	0.025217704
79	0x3b9238cf	0.0044623385
80	0xbe10e46a	-0.14149633
81	0xbc81e0a6	-0.015854191
82	0xbd3e776d	-0.046500612
83	0xbd3716a3	-0.044699322
84	0x3dd1ffcc	0.102538675
85	0x3d77f05a	0.06053195
86	0x3d5a640e	0.053318076
87	0xbcda04f9	-0.0266137
88	0xbc22c1e7	-0.009933925
89	0xbd42b7fd	-0.047538746
90	0xbc8c9543	-0.017161017
91	0x3e28f2af	0.16498826
92	0x3c351f65	0.011054848
93	0x3c062f12	0.008189933
94	0x3c2ffd62	0.0107415635
95	0x3d246978	0.040139645
96	0x3d62b47d	0.05534791
97	0xbd046fda	-0.032333232
98	0x3d3825be	0.04495787
99	0xbceab959	-0.028652834
100	0xbd207f0f	-0.039183673
101	0xbbb16850	-0.0054140463
102	0x3c2fcdb0	0.010730192
103	0x3cc6e873	0.024280762
104	0xbc800fab	-0.015632471
105	0xbcff679a	-0.03117733
106	0xbc5c0757	-0.013429484
107	0xbd812154	-0.06305185
108	0x3cfbaa70	0.03072092
109	0x3cf67a5c	0.030087642
110	0xbd5c3462	-0.053760894
111	0xbda1fa93	-0.07909121
112	0x3cad37c9	0.021144764
113	0xbd20e31f	-0.0392791
114	0xbd0d488e	-0.03449302
115	0xbd43ed77	-0.047833886
116	0xbd9ab4dc	-0.075540274
117	0x3c75972b	0.0149896545
118	0x3b7712b4	0.0037700357
119	0xbc9e80ed	-0.019348586
120	0x3d5aa304	0.05337812
121	0x3c5befbe	0.013423858
122	0xbd9cefd5	-0.07662932
123	0x3e34223c	0.17591184
124	0x383c8338	4.49449e-05
125	0xbd2fd26e	-0.04292529
126	0xbdc279d9	-0.09495897
127	0xbd53cd12	-0.051709242
128	0xbd73c639	-0.05951521
129	0x3dc8bbfc	0.0980148
130	0x3cbf1183	0.02332378
131	0xbcfed010	-0.031105071
132	0x3df491eb	0.11941894
133	0x3c5926c2	0.0132538695
134	0x3cfcb502	0.03084803
135	0x3cd7e8bd	0.026356095
136	0xbd905049	-0.07046563
137	0xbcb1eae5	-0.021718452
138	0x3de6cca4	0.11269501
139	0xbdd35ddd	-0.103206374
140	0x3c074b09	0.008257636
141	0x3ca5fbc9	0.020261662
142	0x3e2d6cba	0.16936007
143	0x3d4ad52f	0.049519714
144	0x3db47ed6	0.088132545
145	0xbcf02855	-0.029316107
146	0x3d1ec839	0.038765166
147	0xbdb5eb55	-0.08882777
148	0xbc655892	-0.013998168
149	0x3c5b57cf	0.013387634
150	0xbd411acf	-0.047144707
151	0xbda21965	-0.07915
152	0xbd11c30d	-0.035586406
153	0xbd34464b	-0.04401235
154	0xbdae2f53	-0.0850512
155	0x3dd6c93e	0.10487603
156	0x3d0ff694	0.035147265
157	0x3d1beda5	0.038068432
158	0xbc63428d	-0.013870847
159	0xbc631614	-0.013860244
160	0xbbf351ff	-0.007425546
161	0x3c178b79	0.0092495615
162	0xbdb94a0f	-0.09047329
163	0x3b98b1a4	0.0046598483
164	0x3daff8ca	0.085923746
165	0xbde94cab	-0.113915764
166	0xbab69140	-0.0013928786
167	0x3d4a53a2	0.049396165
168	0xbda31e68	-0.07964784
169	0xbddda3e4	-0.10822275
170	0x3b60d0af	0.0034304073
171	0xbe066d5f	-0.1312766
172	0xbda107be	-0.07862805
173	0xbb7c644a	-0.0038511925
174	0xbdffae46	-0.12484412
175	0xbd10b864	-0.0353321
176	0x3d8968b4	0.06709424
177	0xbc9da6c6	-0.019244563
178	0xbd01f648	-0.031729013
179	0xbd8b8896	-0.06813161
180	0xbdacb408	-0.08432776
181	0x3bb147b0	0.005410157
182	0xbcb79c78	-0.022413477
183	0xbd7b3758	-0.061332077
184	0x3cd527e1	0.026019992
185	0x3ca23037	0.019798381
186	0xbd867dd9	-0.06566972
187	0x3da3af0a	0.079923704
188	0xbd9ce768	-0.07661325
189	0x3c5297ae	0.012853546
190	0xbd1a2d69	-0.037640963
191	0xbdb99b70	-0.090628505
192	0xbd414b0c	-0.04719071
193	0xbca0cc00	-0.019628525
194	0x3df75f14	0.120786816
195	0x3d8e9b6f	0.0696324
196	0x3b4ca403	0.0031225688
197	0x3cc71501	0.024302008
198	0x3b4e812f	0.0031510105
199	0xbba8f846	-0.0051565496
200	0xbccb7a2f	-0.024838535
201	0x3df05d45	0.1173654
202	0x3d22d769	0.039756212
203	0x3d355aec	0.044276163
204	0x3d997818	0.07493609
205	0x3c643bb5	0.013930251
206	0x3dc671c1	0.096896656
207	0x3daa3ab6	0.083119795
208	0xbb56b473	-0.0032761365
209	0xbcfe391f	-0.031033097
210	0x3d8d4166	0.068972394
211	0x3d0a268f	0.03372818
212	0x3db86d0a	0.090051726
213	0x3c60293c	0.013681706
214	0xbd8c2725	-0.06843404
215	0x3bdf6eaa	0.006818612
216	0x3e39ade0	0.18132734
217	0x3d08096d	0.033212114
218	0x3da0c282	0.078495994
219	0x3e05cf02	0.13067248
220	0xbc4e5b5a	-0.012595022
221	0x3c3a6abe	0.011377988
222	0x3dbfcbb6	0.09365027
223	0x3d34a72a	0.044104733
224	0x3d18b8c5	0.037285585
225	0x3dcab447	0.098976664
226	0x3dc240fb	0.0948505
227	0x3d4bfd85	0.049802322
228	0x3cb46e6b	0.022025308
229	0xbc1fe89d	-0.009760049
230	0xbc9cf3a2	-0.019159142
231	0x3dc0ec6b	0.09420093
232	0x3a095dd9	0.00052401196
233	0x3dcc788f	0.09983932
234	0x3cc26e6d	0.023734296
235	0xba8cc628	-0.0010740208
236	0xba0f723e	-0.00054720405
237	0x3d95e63e	0.07319306
238	0x3e0b472c	0.13601369
239	0x3daac45d	0.083382346
240	0x3bef00b2	0.007293784
241	0x3d55f422	0.052234776
242	0xbdc0421b	-0.093876086
243	0x3bdcd575	0.0067393132
244	0x3c6a095c	0.014284458
245	0x3d23ed3f	0.040021177
246	0x3c1a5c69	0.009421446
247	0x3ce5158f	0.027964382
248	0xbc07a1b1	-0.008278296
249	0xbd99dc48	-0.075127184
250	0xbc9a5097	-0.018837256
251	0x3c7c87b9	0.015413218
252	0xbce2f389	-0.027704017
253	0xbe13ede4	-0.14446217
254	0xbcd732ed	-0.0262694
255	0xbdabc0a8	-0.08386356

arith.constant6 f4 [16]
0	0x3d4c49cd	0.04987507
1	0x3d6640a0	0.056213975
2	0x3c3cc692	0.011521952
3	0x3d67e8b9	0.056618426
4	0x3c3e0c5a	0.0115996245
5	0x3d2ed0fb	0.042679768
6	0xbc6bd498	-0.014393948
7	0x3d376d00	0.044781685
8	0xbbc4b0d9	-0.006002527
9	0x3d277bdf	0.040889617
10	0x3c90f97f	0.017697094
11	0x3c686746	0.014184779
12	0xbbab29dd	-0.0052234964
13	0x3c8a553a	0.016886342
14	0x3c962ce2	0.018331949
15	0x3d5b5c57	0.05355486

arith.constant7 f4 [2]
0	0xbd835a50	-0.0641371
1	0x3d835a4e	0.064137086
