model_training/spikeball.tflite (tflite, 31428 bytes, 8 tensors)

arith.constant f4 [16]
0	0x3dafe57c	0.085886925
1	0x3f0059a9	0.5013681
2	0xbd03c938	-0.03217432
3	0x3d390bf8	0.04517743
4	0x3ccaf33a	0.024774183
5	0x3dac019a	0.08398743
6	0xbd68d209	-0.05684093
7	0xbc43026a	-0.011902431
8	0x3d648d9a	0.055799104
9	0x3d427bbb	0.04748128
10	0x3d715c86	0.058926128
11	0x3e06fdef	0.13182805
12	0x3d9a34ca	0.075296
13	0x3b4e57b4	0.003148538
14	0x3bee1698	0.007265877
15	0x3d8de33c	0.06928107

arith.constant1 f4 [8]
0	0xbd88c46c	-0.066780895
1	0xbc2bd6f7	-0.010488263
2	0xbdeeb8b4	-0.11656323
3	0x3cb197a7	0.021678759
4	0x3e4a2b13	0.19742994
5	0x3d837b5f	0.064200155
6	0x3c253e30	0.010085627
7	0x3d3c5904	0.04598333

arith.constant5 f4 [16, 1, 4, 8]
0	0x3e524623	0.20534568
1	0xbe5336d3	-0.20626383
2	0x3e250d65	0.16118391
3	0x3e32f5c1	0.1747656
4	0x3e77753f	0.2416582
5	0xbd506f4c	-0.05088739
6	0x3d4d03c8	0.050052434
7	0xbdf2bf72	-0.118529215
8	0xbe846bc7	-0.25863478
9	0xbe24cadf	-0.16093014
10	0xbe178cdd	-0.14799829
11	0x3c819856	0.01581971
12	0x3e12127d	0.14264865
13	0x3e4d3ba6	0.20042285
14	0x3d17dcc2	0.037075765
15	0x3e16c7fb	0.14724724
16	0xbcea33af	-0.028589098
17	0x3e336dd3	0.17522363
18	0xbc7b24f1	-0.015328632
19	0xbdf1a66a	-0.11799319
20	0x3e1e8c60	0.15483236
21	0x3e43b908	0.19113553
22	0xbe48d2e7	-0.19611703
23	0x3de8a012	0.11358656
24	0xbe3945dd	-0.18093057
25	0xbe1eb2c9	-0.15497889
26	0xbc953b36	-0.01821671
27	0x3d863ae5	0.06554202
28	0x3e5f2b85	0.21793945
29	0xbe1f633d	-0.155652
30	0xbe4dff64	-0.20116955
31	0xbe2399a7	-0.15976582
32	0x3d99f34b	0.075171076
33	0xbd9fe576	-0.07807438
34	0xbde8beb9	-0.113645025
35	0xbdf28d11	-0.118433125
36	0x3d0a9272	0.033831067
37	0xbd93a09a	-0.07208367
38	0xbe231567	-0.15926133
39	0x3e47c5ef	0.195091
40	0x3dcfe2ba	0.101506665
41	0x3dbc03a8	0.09180385
42	0xbdaa62c7	-0.083196215
43	0xbc87b01a	-0.016563464
44	0x3e292597	0.16518246
45	0xbe77640f	-0.24159263
46	0x3da293d4	0.07938352
47	0x3cc5b131	0.024132343
48	0xbd9aadaf	-0.07552659
49	0xbe968109	-0.2939532
50	0xbdb0ee4d	-0.08639202
51	0xbd915c71	-0.0709771
52	0x3d993428	0.07480651
53	0xbdc7667c	-0.09736344
54	0xbe3c464d	-0.18386193
55	0xbcdedc92	-0.027204785
56	0xbe010d1b	-0.12602656
57	0x3d5fc7cf	0.05463391
58	0xbc68e2df	-0.0142142465
59	0xbd83f936	-0.064440176
60	0x3e1e2643	0.15444283
61	0x3cd7800f	0.02630618
62	0x3dcdc48f	0.10047256
63	0xbdd6ee10	-0.104946256
64	0x3e2e9d3d	0.17052169
65	0x3ce0c2e2	0.027436677
66	0xbda8ea60	-0.082478285
67	0x3e6c8a44	0.23099619
68	0xbcaf3d7e	-0.021391626
69	0x3bcd155a	0.006258649
70	0xbd81d328	-0.06339103
71	0x3e672f69	0.2257668
72	0x3dbc2823	0.09187343
73	0x3d9a195c	0.07524368
74	0xbcae8da0	-0.021307766
75	0x3db5cabb	0.088765584
76	0xbd16ebd5	-0.036846
77	0x3dc5d721	0.09660173
78	0xbdb48ea7	-0.08816271
79	0xbdd50965	-0.104021825
80	0xbe1ee697	-0.1551765
81	0xbdd240ce	-0.10266267
82	0xbe61649c	-0.22011036
83	0xbd2615db	-0.040548187
84	0xbe61d694	-0.22054511
85	0xbd421b8f	-0.047389563
86	0xbe5e813e	-0.2172899
87	0xbd497215	-0.049181063
88	0xbe2a9542	-0.166585
89	0x3d60eef8	0.0549154
90	0xbe6ba83e	-0.23013398
91	0xbea8c2d7	-0.3296115
92	0xbe35cfa3	-0.17754988
93	0xbc268ee6	-0.010165906
94	0xbda2ba78	-0.07945722
95	0xbe9b28d3	-0.30304584
96	0xbe7dc753	-0.24783067
97	0xbe355c8e	-0.17711088
98	0x3de7fd84	0.11327651
99	0xbe7b5bbe	-0.24546716
100	0x3e3902fd	0.18067546
101	0x3e3d8b5d	0.18510194
102	0x3dc51144	0.09622434
103	0x3dfcfe9a	0.12353249
104	0xbe18bace	-0.1491501
105	0x3e3375c1	0.17525388
106	0x3e703a0b	0.23459642
107	0x3da80615	0.08204285
108	0x3db24460	0.08704448
109	0x3e1c6364	0.1527229
110	0x3e244b76	0.16044411
111	0xbe091c6b	-0.13389747
112	0x3d95d8ad	0.07316718
113	0xbd63d5ef	-0.055623945
114	0x3d7e932d	0.062152077
115	0xbe209adf	-0.15684079
116	0xbdec6dc7	-0.11544376
117	0xbe254948	-0.16141236
118	0xbe385cc4	-0.18004137
119	0xbe43e8a5	-0.19131716
120	0x3c16f01b	0.009212519
121	0x3d028bb2	0.031871505
122	0xbcf3b5a9	-0.029749708
123	0xbd4a9539	-0.049458716
124	0xbd658f89	-0.05604509
125	0x3cbea17a	0.023270357
126	0xbe6da50a	-0.23207489
127	0x3dc9bbf3	0.098503016
128	0xbe3c801a	-0.18408242
129	0x3e83da0b	0.2575229
130	0xbde645ed	-0.11243806
131	0x3dbb1a93	0.09135928
132	0x3dfe799a	0.124255374
133	0x3e1937a9	0.14962639
134	0xbde275ac	-0.110576004
135	0x3e66492f	0.22488855
136	0x3e298735	0.16555484
137	0x3e7bbf69	0.24584736
138	0x3e1e9f49	0.1549045
139	0xbd8323f3	-0.06403341
140	0x3e43e135	0.19128878
141	0x3d1a2f06	0.0376425
142	0xbd92ebc7	-0.07173877
143	0xbde163fa	-0.11005397
144	0x3d28db12	0.041224547
145	0x3e76b646	0.2409297
146	0xbd6b6adf	-0.057474967
147	0x3d2d98d2	0.04238207
148	0x3e16daa3	0.14731841
149	0xbe0e0fa4	-0.13873154
150	0x3e163729	0.1466948
151	0xbd6b5a51	-0.05745918
152	0xbd301517	-0.042988863
153	0x3dd9298b	0.10603627
154	0xbe489647	-0.19588576
155	0x3d365426	0.044513844
156	0x3dbec435	0.09314767
157	0x3e52b998	0.20578611
158	0x3e75b898	0.23996198
159	0x3e3eee2a	0.1864554
160	0xbd2f9cec	-0.04287426
161	0xbb527cdd	-0.0032117881
162	0x3be37e79	0.006942567
163	0x3c477311	0.01217343
164	0xbc9d6bea	-0.019216496
165	0x3e0c17d8	0.1368097
166	0xbea3962e	-0.31950516
167	0x3e02e039	0.12780847
168	0x3da5d796	0.080977604
169	0x3e0d6975	0.1380976
170	0x3d9bcf6a	0.076079205
171	0x3e2b380b	0.16720597
172	0xbdcbdedc	-0.099546164
173	0x3e264f91	0.1624129
174	0xbd01113e	-0.031510584
175	0x3e4081f8	0.18799579
176	0x3e56f7d5	0.20992978
177	0x3e7c1d4f	0.24620555
178	0xbce9b8c0	-0.028530478
179	0x3d46e8d0	0.04856187
180	0x3e4c46f5	0.19948943
181	0xbe46822a	-0.19385591
182	0xbe4ecb52	-0.20194748
183	0xbd69a9cc	-0.057046697
184	0x3e2429a9	0.16031517
185	0xbe13e6c5	-0.144435
186	0x3e078531	0.13234402
187	0x3e889fe7	0.26684496
188	0x3d91376c	0.07090649
189	0xbe3d8501	-0.18507768
190	0x3dc43adc	0.09581539
191	0xbdec2686	-0.11530785
192	0xbdee7763	-0.11643865
193	0x3cf1c8e9	0.029514747
194	0x3d7ec4d1	0.062199418
195	0xbdc7f909	-0.097642966
196	0x3e322449	0.17396654
197	0xbe08279b	-0.13296358
198	0x3e6a1945	0.22861202
199	0xbd664680	-0.056219578
200	0x3c94c610	0.01816085
201	0x3e6a4171	0.22876526
202	0xbdc27ffd	-0.09497068
203	0xbd8a67d9	-0.067580886
204	0x3e0360e4	0.1282993
205	0x3e8f09a2	0.27937037
206	0x3e54f10e	0.2079508
207	0x3e354ef3	0.17705898
208	0xbd620f0b	-0.055190127
209	0xbdf19839	-0.11796612
210	0xbe27cc12	-0.1638644
211	0x3e92c16e	0.286632
212	0x3c04f63b	0.008115347
213	0x3e739722	0.23788121
214	0x3e73ffdf	0.23828076
215	0xbd4c5783	-0.049888145
216	0xbe153381	-0.14570428
217	0x3c67f003	0.014156344
218	0x3e0471c8	0.12934029
219	0xbd6a2273	-0.05716176
220	0x3d00dfe8	0.031463534
221	0xbe53b0f0	-0.20672965
222	0x3dc52ca9	0.09627659
223	0x3e78e2e9	0.2430531
224	0xbe7ac0d6	-0.24487624
225	0xbe89f1b6	-0.26942223
226	0x3e201af2	0.15635279
227	0x3dc8984d	0.09794674
228	0xbe4b730b	-0.19868104
229	0xbe87beb1	-0.26512673
230	0xbd914e45	-0.07095007
231	0x3e7225a0	0.23647165
232	0x3e1868dd	0.14883752
233	0xbe485d79	-0.19566907
234	0x3e5e828c	0.21729487
235	0x3e16a141	0.14709951
236	0x3e01b4b9	0.12666596
237	0x3e01f9ee	0.12692997
238	0x3e623f4f	0.22094463
239	0xbcc872d4	-0.024468817
240	0x3e1847fb	0.14871208
241	0x3d332dbd	0.04374479
242	0x3df310e2	0.118684545
243	0x3c8efed6	0.0174555
244	0xbe1f4934	-0.15555269
245	0xbdabe98b	-0.08394154
246	0xbdc94fef	-0.09829699
247	0x3d3c072c	0.045905277
248	0xbe8a2961	-0.26984695
249	0xbe995d35	-0.29953924
250	0xbe82382f	-0.2543349
251	0x3dadaf95	0.08480755
252	0xbe06457b	-0.13112442
253	0x3bf88169	0.0075837863
254	0xbe2e4391	-0.17017962
255	0xbb3da844	-0.0028939405

arith.constant6 f4 [8, 1, 4, 3]
0	0x3cd82cff	0.026388643
1	0xbd830a3f	-0.06398439
2	0xbe9dc73f	-0.30816075
3	0x3bb2115d	0.005434199
4	0xbd9f9f90	-0.07794106
5	0x3d14c55b	0.036321025
6	0xbe99a73b	-0.300104
7	0x3df814b9	0.121133275
8	0x3b02ce2f	0.001995932
9	0xbe73988e	-0.23788664
10	0xbd62c036	-0.055359088
11	0x3e0756ea	0.13216749
12	0xbe010c1c	-0.12602276
13	0x3e4753e6	0.19465598
14	0xbe19c05a	-0.15014783
15	0x3dd4683e	0.10371445
16	0xbda076ce	-0.0783516
17	0xbd8c663f	-0.068554394
18	0xbd0098f6	-0.031395875
19	0xbecf2f6f	-0.40465876
20	0x3c52313a	0.012829119
21	0x3df08ed6	0.11745994
22	0x3cc4a995	0.024006644
23	0x3d2d394c	0.04229097
24	0xbe2fb0bd	-0.17157264
25	0x3e3f4a76	0.18680748
26	0xbe2e52b4	-0.17023736
27	0xbd4ddee0	-0.05026138
28	0xbd9f9750	-0.077925324
29	0xbe4c4559	-0.19948329
30	0xbe91fea1	-0.2851458
31	0xbad76aa4	-0.001643498
32	0x3c9eccad	0.019384706
33	0xbe62c61b	-0.22145884
34	0xbe4701e5	-0.19434316
35	0x3e9b5782	0.303402
36	0x3ce318f6	0.027721863
37	0xbe13ed0b	-0.14445893
38	0xbe5bf519	-0.21480216
39	0x3e1ef6af	0.1552379
40	0x3e94d9d9	0.29072455
41	0x3c383ee6	0.011245465
42	0xbde94b1c	-0.11391279
43	0xbe835bb9	-0.25655916
44	0xbd5c55d8	-0.053792804
45	0xbe373aa0	-0.17893457
46	0x3cd30e84	0.025763758
47	0xbe21ea9c	-0.15812153
48	0xbeb6ebe9	-0.3572686
49	0x3e64a929	0.22330154
50	0x3bc4c385	0.006004753
51	0xbd103213	-0.035204004
52	0x3e8c4f2d	0.27404156
53	0x3dc145d7	0.09437149
54	0x3d237383	0.039905082
55	0xbcea4668	-0.028598025
56	0xbe83946f	-0.25699183
57	0x3e8b633d	0.2722415
58	0xbe0c41b6	-0.13696942
59	0x3ea728da	0.32648355
60	0x3d9f055d	0.07764695
61	0x3e946429	0.28982666
62	0x3e4c8c47	0.19975387
63	0xbeb3546f	-0.35025355
64	0xbd7043c7	-0.058658388
65	0xbe55e7bd	-0.20889182
66	0x3dd8a5af	0.10578477
67	0xbe1752d7	-0.14777695
68	0xbe41df4f	-0.18932842
69	0x3d35b46d	0.04436152
70	0xbebddf7e	-0.37084574
71	0x3e99371e	0.29924864
72	0x3ceb53fb	0.028726568
73	0xbe5402a6	-0.20704135
74	0xbe97a12b	-0.2961515
75	0xbe1e3df1	-0.15453316
76	0x3edc5164	0.43030846
77	0xbca7591b	-0.020428231
78	0xbdc79979	-0.097460695
79	0xbe5945d0	-0.21218038
80	0xbd4f6597	-0.050633993
81	0xbea651e2	-0.32484347
82	0x3c99be57	0.018767519
83	0xbe1b3c2d	-0.15159674
84	0x3de5e814	0.11225906
85	0xbe665641	-0.22493841
86	0xbe5a1a8a	-0.21299186
87	0xbe32eed1	-0.17473914
88	0xbc31b9e9	-0.010847547
89	0xbea77247	-0.32704374
90	0xbe62c2bc	-0.22144598
91	0xbe007220	-0.12543535
92	0xbdc93933	-0.09825363
93	0xbd6438bc	-0.05571817
94	0xbcc60105	-0.024170408
95	0xbe08d03a	-0.13360682

arith.constant7 f4 [2, 16]
0	0xbecb8e34	-0.3975693
1	0xbeac0376	-0.3359639
2	0xbe48d3a7	-0.19611989
3	0x3cce5c05	0.025190363
4	0xbed8d840	-0.42352486
5	0x3e45f2fe	0.19330975
6	0xbde5bcaf	-0.11217629
7	0xbea4b199	-0.32166746
8	0xbec1d887	-0.3786051
9	0x3e09b08f	0.13446258
10	0x3eda2112	0.42603356
11	0xbe27f1dd	-0.16400857
12	0xbd955bf2	-0.07292928
13	0x3e86b747	0.26311705
14	0x3f0ace14	0.542207
15	0x3ec07dac	0.3759588
16	0xbe7052f6	-0.23469147
17	0x3d966647	0.073437266
18	0x3eb54b07	0.35408804
19	0x3b3a6b5c	0.0028445339
20	0x3e06b949	0.13156618
21	0xbf10eca9	-0.56611115
22	0xbccf851a	-0.025332022
23	0xbe9ff60e	-0.31242412
24	0xbedff741	-0.43743327
25	0x3eee1115	0.46497408
26	0xbe6540bc	-0.22387975
27	0xbe20384b	-0.15646474
28	0xbd98370f	-0.074323766
29	0xbe471212	-0.19440487
30	0x3e8cef95	0.27526537
31	0x3ebbefff	0.3670654

arith.constant8 f4 [16, 368]
0	0xbdfde202	-0.12396623
1	0x3c02c790	0.00798215
2	0x3cc99a90	0.024609834
3	0x3d3a9f92	0.045562334
4	0x3c6cc283	0.014450672
5	0x3c112b4c	0.00886042
6	0xbdef5f4d	-0.11688099
7	0xbddc6a2c	-0.10762438
8	0x3dbcf8e1	0.092271574
9	0xbdfe4799	-0.12416
10	0xbdfae27a	-0.12250228
11	0xbb592a3a	-0.0033136741
12	0xbdbf976e	-0.09355055
13	0xbd352d6f	-0.044232782
14	0xbb851c14	-0.004062185
15	0xbc8d33cc	-0.017236613
16	0xbcca1b95	-0.024671355
17	0xbd6e5dd3	-0.058194946
18	0x3d32d198	0.043656915
19	0x3bb56bb0	0.005536519
20	0xbde5f74d	-0.112288095
21	0xbd6496d0	-0.05580789
22	0xbd480501	-0.048832897
23	0xbd3343f3	-0.043765973
24	0xbd7305de	-0.059331767
25	0x3ca8229f	0.020524321
26	0x3d989b72	0.07451524
27	0x3c1de04b	0.009635995
28	0xbdc03a21	-0.09386087
29	0xbd38dc9b	-0.04513226
30	0x3ddc6adc	0.10762569
31	0x3dd684ba	0.10474534
32	0x3da89a12	0.082325116
33	0xbd0f6cd3	-0.035015892
34	0xbd34f8e0	-0.04418266
35	0xbcd95e1e	-0.026534136
36	0xbda1deae	-0.07903801
37	0xbdc88d49	-0.09792573
38	0xbd525146	-0.05134704
39	0xbd8ada10	-0.06779873
40	0xbca748ae	-0.020420399
41	0xbda922d9	-0.082586
42	0xbd8167ae	-0.063186035
43	0xbda73c53	-0.08165803
44	0xbd8879ad	-0.06663833
45	0xbdcf399a	-0.101184085
46	0xbdc7fddc	-0.09765217
47	0x3dbb98b9	0.09159989
48	0xbc8ed343	-0.017434722
49	0xbc214a50	-0.009844378
50	0x3cfa6417	0.030565305
51	0xbd675488	-0.0564771
52	0xbdbe3172	-0.09286775
53	0x3d78e809	0.06076816
54	0xbd96169f	-0.073285334
55	0x3d0e341b	0.03471766
56	0x3dd5c384	0.10437682
57	0xbd727e4d	-0.05920248
58	0xbc335fe1	-0.010948152
59	0xbd35bd24	-0.04436983
60	0x3dcc7ad4	0.09984365
61	0xbdb52880	-0.088456154
62	0xbdb8828c	-0.09009275
63	0xbdaf9d1a	-0.085748866
64	0x3d05fe79	0.032713387
65	0x3c27a81f	0.010232954
66	0xbc878468	-0.016542628
67	0x3ca9d509	0.020731466
68	0x3d6f8bd7	0.05848297
69	0xbdd425cf	-0.10358774
70	0x3dbd09a4	0.092303544
71	0xbde4d9f9	-0.111743875
72	0x3b9ca526	0.0047804294
73	0xbc585fa8	-0.0132064
74	0x3d098196	0.03357085
75	0x3bd00705	0.006348493
76	0xbd84450f	-0.064584844
77	0xbcec27e3	-0.028827613
78	0x3d17d71e	0.037070386
79	0xbd9705cb	-0.07374152
80	0xbdcc0f45	-0.0996385
81	0xbe0aa2a5	-0.13538606
82	0x3cbaf40a	0.022821445
83	0xbdb14789	-0.086562224
84	0xbacb8ed8	-0.0015530242
85	0xbcc1a3d2	-0.023637686
86	0x3db91ae7	0.09038334
87	0xbd444dc5	-0.04792573
88	0xbdae0134	-0.08496323
89	0xbbee67b8	-0.007275548
90	0x3b22cbb3	0.0024840652
91	0x3cd87560	0.026423156
92	0x3dac30f2	0.08407773
93	0xbd83a194	-0.06427303
94	0xbda1679d	-0.07881091
95	0x3d55172d	0.052024055
96	0xbde64ea6	-0.1124547
97	0x3a1c6fee	0.00059676066
98	0xbdc386dd	-0.095472075
99	0xbdcaa173	-0.09894075
100	0xbc08270a	-0.008310089
101	0x3d514899	0.051094625
102	0xbdc195fa	-0.09452434
103	0xbde3d75d	-0.11125062
104	0xbd725bf4	-0.059169725
105	0xbdec20f8	-0.11529726
106	0xbddb570e	-0.10709964
107	0xbd94a19f	-0.07257389
108	0x3d3ecdd1	0.046583
109	0xbdce6c57	-0.10079258
110	0xbe02f9a0	-0.12790537
111	0xbd1d1101	-0.038346294
112	0x3ca1d89e	0.019756611
113	0xbde9aa29	-0.114094086
114	0x3d58b13a	0.05290339
115	0xbd50a996	-0.05094298
116	0xbce3f56b	-0.027826985
117	0xbd74ee82	-0.05979777
118	0x3d0ba0f2	0.034089036
119	0x3d16ab30	0.03678435
120	0xbdaf2cc5	-0.08553461
121	0xbd210e46	-0.039320253
122	0x3d7eba82	0.062189586
123	0xbd84dc7f	-0.06487369
124	0x3d3685af	0.044561084
125	0x3dc14125	0.094362535
126	0x3d5fb02e	0.054611377
127	0xbdfdd86f	-0.12394797
128	0xbdd1527a	-0.10220809
129	0xbdb2e5b4	-0.08735219
130	0xbb1753c9	-0.0023090711
131	0xbdb9b89b	-0.09068414
132	0x3d26be02	0.04070855
133	0xbb66befb	-0.0035209048
134	0xbd091803	-0.033470165
135	0x3d77a609	0.060461078
136	0x3d36c642	0.044622667
137	0xbdd505ce	-0.10401498
138	0x3ce63e01	0.028105738
139	0xbd869f4c	-0.06573352
140	0x3bb78888	0.0056009926
141	0x3d45fa0b	0.048334163
142	0xbe0d3ab5	-0.13791926
143	0x3d67367c	0.056448445
144	0xbcd2b1c1	-0.025719525
145	0xbd15460f	-0.036443766
146	0xbd8fab01	-0.07015038
147	0xbda9abd1	-0.082847245
148	0x3d889112	0.06668295
149	0x3de888f9	0.113542505
150	0xbe0727ea	-0.1319882
151	0x3dbe9ed7	0.0930764
152	0xbdd6b975	-0.10484592
153	0xbdc222c6	-0.09479289
154	0xbd42350b	-0.047413867
155	0x3c3d022f	0.011536165
156	0xbb939008	-0.004503254
157	0xbcf13a02	-0.029446606
158	0xbdb8cb21	-0.09023119
159	0x3de7a64a	0.11311014
160	0xbb44decd	-0.0030040026
161	0x3d601a0b	0.054712337
162	0xbd900c7a	-0.0703363
163	0xbdf8b209	-0.121433325
164	0x3bfb17ae	0.007662735
165	0x3d70560d	0.058675814
166	0xbd00e79d	-0.031470884
167	0xbdfc95e2	-0.123332754
168	0xbca45407	-0.020059599
169	0xbda370a8	-0.07980472
170	0xbdc166e2	-0.094434515
171	0x3d90988e	0.070603475
172	0xbd8d6ea0	-0.06905866
173	0xbdc0986f	-0.094040744
174	0xbe022737	-0.12710272
175	0xbdafce20	-0.08584237
176	0x3cfddda3	0.030989474
177	0x3d3187dc	0.043342456
178	0x3d52062b	0.051275413
179	0x3cc6ab97	0.024251742
180	0x3dab9e7a	0.083798364
181	0xbe05a1b7	-0.1304997
182	0xbda03e7b	-0.07824417
183	0xbd79459f	-0.06085741
184	0xbdfb159a	-0.122599795
185	0xbd6a0c7a	-0.057140805
186	0x3d4c46cc	0.049872205
187	0x3da92c69	0.08260424
188	0xbb167495	-0.0022957672
189	0xbdbddf33	-0.092710875
190	0xbe03aa4b	-0.1285793
191	0x3aac4748	0.0013143802
192	0x3d568086	0.052368663
193	0xbd7f5878	-0.06234023
194	0xbb655eed	-0.0034999207
195	0x3d0748fb	0.033028584
196	0x3c1fa042	0.009742798
197	0xbdaea2b1	-0.08527125
198	0xbd850d64	-0.06496695
199	0xbd121621	-0.035665635
200	0x3c8dbc58	0.017301723
201	0xbdc2a120	-0.095033884
202	0xbd294a70	-0.041330755
203	0x3d1dfcdd	0.038571227
204	0xbc892130	-0.016739458
205	0xbd7a69bd	-0.061135996
206	0xbd37bdfc	-0.044858918
207	0xbcf8aa0c	-0.030354522
208	0xbe097f02	-0.13427356
209	0x3d8a4531	0.067514785
210	0x3c73aaf1	0.014872299
211	0x3d9797f7	0.07402032
212	0xbd2b353d	-0.04179882
213	0x3dbf86b6	0.09351866
214	0xbd8ff147	-0.07028442
215	0xbd65044d	-0.055912305
216	0xbd8b1e7a	-0.06792922
217	0xbce33b7f	-0.02773833
218	0x3d1b4078	0.03790328
219	0xbb0858ec	-0.0020804955
220	0xbd3e90c2	-0.04652477
221	0x3d87c10f	0.0662862
222	0x3c145f9f	0.009056001
223	0x3dd8722c	0.105686516
224	0xbdda8f0e	-0.10671817
225	0xbdeb7db7	-0.114985876
226	0x3db67cf0	0.08910549
227	0x3d5bc007	0.05364993
228	0xbd78282b	-0.060585182
229	0xbe07561b	-0.1321644
230	0xbd0ebf38	-0.03485033
231	0xbcb7cfe8	-0.022438005
232	0xbd917604	-0.07102588
233	0x3d8f6d86	0.07003312
234	0xbcacd94d	-0.02109971
235	0x3d67196a	0.05642072
236	0xbd4ac4ca	-0.04950408
237	0xbdff67bf	-0.1247096
238	0x3c18bc85	0.00932229
239	0xbb06e38b	-0.0020582404
240	0xbd352979	-0.044229005
241	0xbdce19f8	-0.10063547
242	0x3de0f400	0.10984039
243	0x3d5e739b	0.05430947
244	0x3d470d24	0.048596516
245	0x3d8943ed	0.06702409
246	0xbd95552a	-0.072916344
247	0x3d3e9cdc	0.04653631
248	0xbc989450	-0.018625408
249	0xbced49ad	-0.028965795
250	0xbc774e58	-0.015094362
251	0x3db78142	0.08960201
252	0xbc80afe7	-0.015708877
253	0xbd20d611	-0.03926665
254	0x3d7e57c3	0.062095415
255	0x3d9a701e	0.07540916

arith.constant9 f4 [16]
0	0xbc2bc743	-0.010484519
1	0xbca81bda	-0.020521093
2	0xbcb2d4ea	-0.021830041
3	0xbd03fca6	-0.032223366
4	0xbc873920	-0.016506732
5	0xbd73415d	-0.059388507
6	0xbd2387ed	-0.03992455
7	0x3e887f00	0.26659393
8	0xbcd16bd7	-0.025564117
9	0xbcfffb80	-0.031247854
10	0xbd78d4a3	-0.06074966
11	0x3c00c7ea	0.007860163
12	0xbd1f7328	-0.03892818
13	0xbd80db23	-0.06291797
14	0xbd4b7eff	-0.04968166
15	0x3e0b17a2	0.13583234

arith.constant10 f4 [2]
0	0xbf184cfc	-0.5949247
1	0x3f184cfd	0.59492475
