model_training/spikeball.tflite (tflite, 31428 bytes, 8 tensors)

arith.constant f4 [16]
0	0x3d57116e	0.052506857
1	0x3dd3a3db	0.10333987
2	0x3c9e6d78	0.019339308
3	0x3d9b25b4	0.07575551
4	0x3c1588b2	0.009126829
5	0xbc3045dd	-0.010758844
6	0x3e4736b5	0.19454463
7	0x3c995fe4	0.018722482
8	0x3cb57339	0.022149669
9	0x3d4f3e7a	0.05059669
10	0x3de0ee82	0.10982992
11	0x38ee3cfa	0.00011360082
12	0x3dbf3857	0.09336918
13	0x3d03a1c7	0.032136705
14	0xbcb1d267	-0.021706773
15	0x3d027e13	0.031858515

arith.constant1 f4 [8]
0	0x3de71673	0.11283579
1	0xbe193c3b	-0.14964382
2	0x3c0c1572	0.008550035
3	0xbd03f497	-0.03221568
4	0x3d22ed30	0.03977698
5	0xbd3b276d	-0.045691896
6	0xbb9b117b	-0.0047323084
7	0x3be08e00	0.006852865

arith.constant5 f4 [16, 1, 4, 8]
0	0xbc08142f	-0.008305593
1	0xbe263dd9	-0.1623453
2	0x3dd6cf68	0.10488778
3	0xbe15e59b	-0.14638369
4	0xbe3742b9	-0.17896546
5	0xbe0a6af4	-0.13517362
6	0xbd2cc391	-0.042178694
7	0x3e028126	0.12744579
8	0xbcd6acc1	-0.026205422
9	0x3d984aba	0.07436128
10	0x3da40ed7	0.08010643
11	0x3e105727	0.14095746
12	0xbd9f2dd0	-0.0777241
13	0x3e42037c	0.18946642
14	0xbe5cf228	-0.2157675
15	0x3cf520ae	0.02992281
16	0xbd9dbf15	-0.07702462
17	0xbdff9ef0	-0.12481487
18	0xbe0e8ca1	-0.13920833
19	0x3cce5829	0.025188522
20	0xbe875d2d	-0.26438275
21	0x3e0b597e	0.13608357
22	0xbdd4651a	-0.10370846
23	0xbe0f6ea3	-0.14007048
24	0xbe1a4456	-0.1506513
25	0xbcd06d07	-0.025442613
26	0x3e0aeb07	0.13566218
27	0x3e3e34cc	0.18574828
28	0xbca91478	-0.020639643
29	0xbbededaa	-0.007260998
30	0x3e3bca96	0.18338999
31	0x3db60f57	0.088896446
32	0x3e1a2ba9	0.15055718
33	0xbde6e54f	-0.11274206
34	0x3e2a4016	0.1662601
35	0x3da0e1b2	0.07855548
36	0xbdad916e	-0.08475004
37	0xbb9b6b30	-0.0047430024
38	0xbe585d6f	-0.21129392
39	0x3dc835e7	0.09775906
40	0xbdf6cac7	-0.120503955
41	0x3dcf68cd	0.10127411
42	0x3d2f2024	0.04275526
43	0xbccf9ef4	-0.02534435
44	0xbe8140fb	-0.2524489
45	0xbdd6ab82	-0.10481931
46	0xbe44b7d0	-0.19210744
47	0xbdcd210e	-0.1001607
48	0xbe035746	-0.12826261
49	0xbe04b5e4	-0.12960011
50	0x3d2b1b2c	0.04177396
51	0xbe64a494	-0.22328407
52	0x3db0a9ee	0.086261615
53	0xbe6fc27c	-0.23414034
54	0xbe04e5cb	-0.12978284
55	0x3e5f9401	0.21833803
56	0xbdd728c7	-0.105058245
57	0xbe6d4417	-0.23170505
58	0x3d4bd93e	0.049767725
59	0x3dc90768	0.09815866
60	0xbd7bac45	-0.061443586
61	0x3e7e7e32	0.24852827
62	0x3b2f4322	0.0026742895
63	0xbdfa6b3b	-0.12227484
64	0x3b8ab93c	0.0042335074
65	0x3e15ef9d	0.14642186
66	0x3daa40a6	0.08313112
67	0x3e16be6a	0.14721075
68	0x3e131239	0.1436242
69	0x3d501335	0.050799567
70	0xbe7a45ce	-0.24440691
71	0x3bfdce4c	0.00774554
72	0x3dae3361	0.085058935
73	0xbe5c9cfd	-0.21544261
74	0x3e355cbf	0.17711161
75	0x3e32053b	0.17384808
76	0x3d2bb08f	0.041916426
77	0x3e5afc8d	0.21385403
78	0xbe289638	-0.16463554
79	0xbe5223e7	-0.20521508
80	0xbe22ab17	-0.15885578
81	0x3d245997	0.040124502
82	0x3e1740c4	0.147708
83	0x3d6efffa	0.058349587
84	0x3e6be431	0.23036267
85	0x3e3aa8b2	0.18228415
86	0x3d9c09a9	0.0761903
87	0xbdea78ed	-0.11448846
88	0xbd431e12	-0.0476361
89	0x3d82139b	0.06351396
90	0x3e0fa3d9	0.14027347
91	0xbdb12ca6	-0.08651094
92	0x3cb54b58	0.022130653
93	0xbe1f18ab	-0.15536754
94	0x3ce1a5f3	0.027544951
95	0xbe34d274	-0.17658406
96	0xbda7465a	-0.08167715
97	0xbe4289af	-0.18997835
98	0x3e3794ca	0.17927852
99	0xbd861cd2	-0.06548466
100	0xbcf368ae	-0.029713001
101	0xbc82d62b	-0.015971264
102	0x3d02134f	0.031756695
103	0x3d9bdd5c	0.0761058
104	0x3dc71d2c	0.09722361
105	0xbe03428e	-0.12818357
106	0x3e5da7aa	0.2164599
107	0x3e4e0429	0.20118774
108	0x3d2046b4	0.039129928
109	0x3e0086e3	0.12551455
110	0x3e26cf06	0.1628991
111	0xbd5370d2	-0.051621266
112	0x3de844c9	0.11341245
113	0xbd3019a1	-0.04299319
114	0xbdb0cbac	-0.08632597
115	0xbe4a11e7	-0.19733392
116	0xbde7ade3	-0.11312463
117	0xbdfebc41	-0.1243825
118	0xbdf40f18	-0.119169414
119	0x3dcf8783	0.10133269
120	0xbd9a08a7	-0.075211816
121	0xbd8d1276	-0.06888287
122	0x3e5c0771	0.21487214
123	0xbe67ea20	-0.22647905
124	0x3e6b01b4	0.22949868
125	0x3c1398fb	0.009008641
126	0x3e6c6e82	0.2308903
127	0x3e27f47b	0.16401856
128	0xbe14f124	-0.14545113
129	0x3e0257d0	0.1272881
130	0xbda1e1b4	-0.079043776
131	0xbe204769	-0.15652241
132	0x3e5ab132	0.21356657
133	0x3aa6c407	0.0012723216
134	0x3e6aeeca	0.22942653
135	0x3d749314	0.059710577
136	0x3d907d26	0.0705512
137	0xbe589bde	-0.21153209
138	0x3e71fc3d	0.23631378
139	0x3e715b4e	0.23569986
140	0x3c4af607	0.012387759
141	0xbcf34160	-0.02969426
142	0xbda82934	-0.08210984
143	0xbe1a6174	-0.15076238
144	0x3cf4db74	0.0298898
145	0xbe1e4d45	-0.15459163
146	0xbe23187f	-0.15927313
147	0x3e30cfb7	0.17266737
148	0x3d5c6833	0.05381031
149	0x3c759120	0.014988214
150	0x3e1b4ed4	0.1516679
151	0xbde2045a	-0.11035986
152	0x3e0a3389	0.13496222
153	0x3dce65f2	0.10078038
154	0x3dec7729	0.115461655
155	0xbd5fad50	-0.054608643
156	0x3e5b2a3d	0.21402831
157	0xbe40896e	-0.18802425
158	0xbe450173	-0.19238834
159	0xbdd1da26	-0.10246687
160	0xbe103fe3	-0.14086871
161	0x3e2124ed	0.15736742
162	0x3e3345ed	0.17507143
163	0xbe63e229	-0.22254242
164	0xbe74f561	-0.2392173
165	0x3dc952e6	0.09830265
166	0xbe7e6f40	-0.24847126
167	0xbdaa3172	-0.08310212
168	0x3e8108cf	0.25202033
169	0x3e592730	0.21206355
170	0x3e558b26	0.20853862
171	0xbdcba3fb	-0.09943386
172	0xbdc93efe	-0.09826468
173	0x3e3c2f6f	0.1837747
174	0xbd67dfc0	-0.05660987
175	0xbdc2b59d	-0.09507296
176	0xbe329bbd	-0.17442222
177	0xbcc32011	-0.023819001
178	0x3dec3df7	0.11535256
179	0xbe00bb1d	-0.12571378
180	0xbb8b1c25	-0.0042452984
181	0x3e6dd8d2	0.23227242
182	0xbdbe86bf	-0.093030445
183	0xbe05edfe	-0.13079068
184	0xbe35e1cd	-0.17761917
185	0xbe351ebc	-0.17687505
186	0x3d1a1a35	0.03762265
187	0x3d1a160a	0.037618674
188	0xbe71cf29	-0.23614182
189	0x3cfd6226	0.03093059
190	0x3e0d2a67	0.13785706
191	0x3dc102d1	0.09424365
192	0x3e0a18d3	0.13486032
193	0xbe402938	-0.18765724
194	0xbe6a4b1a	-0.22880211
195	0xbd30db6b	-0.043178003
196	0x397bd16c	0.00024015241
197	0xbe3b297e	-0.18277547
198	0xbdccaf53	-0.09994378
199	0xbe04ce10	-0.12969232
200	0x3ded4279	0.11584944
201	0x3de15391	0.11002267
202	0xbe34243b	-0.17591946
203	0x3e00bc97	0.12571941
204	0x3e68955b	0.22713225
205	0x3a92ffee	0.0011215189
206	0x3dbfb41f	0.09360527
207	0x3e65a235	0.22425158
208	0x3e1ed8ef	0.15512441
209	0xbe25177b	-0.16122238
210	0x3e61677b	0.22012131
211	0xb8aaa541	-8.1370126e-05
212	0xbdb6e81b	-0.08930989
213	0xbe697ab2	-0.22800711
214	0xbc572791	-0.013131992
215	0xbe01c1e8	-0.12671626
216	0x3e6bd600	0.23030853
217	0xbd3e960c	-0.046529815
218	0xbdf524b1	-0.11969889
219	0xbe4995e5	-0.19686086
220	0x3e4954df	0.19661282
221	0xbde5ec4f	-0.11226713
222	0xbca05582	-0.019572023
223	0xbe0c7d48	-0.13719666
224	0x3e136def	0.14397405
225	0x3e233eb9	0.15941896
226	0xbe83d9be	-0.25752062
227	0x3e592dc9	0.21208872
228	0x3e0da0f3	0.13830929
229	0x3e4326a6	0.19057712
230	0xbba1fc2d	-0.004943392
231	0x3e36fbe2	0.17869523
232	0xbda0306d	-0.078217365
233	0xbd26d9ad	-0.040734936
234	0xbdf7b466	-0.12094955
235	0xbdb3b647	-0.08775001
236	0x3d5a639a	0.053317644
237	0xbcd61f48	-0.026137963
238	0xbd58ad78	-0.052899808
239	0xbdd00045	-0.101563014
240	0x3ce13172	0.027489398
241	0xbdcfd925	-0.10148839
242	0xbe46a640	-0.19399357
243	0x3dc1958b	0.09452351
244	0xbc4a6cfb	-0.0123550845
245	0xbe3b1af3	-0.18271999
246	0x3c076e8e	0.008266104
247	0xbe19651d	-0.14979978
248	0x3e281411	0.16413905
249	0x3e013f48	0.12621796
250	0x3e214848	0.1575023
251	0x3e310cda	0.17290059
252	0x3e775cc6	0.24156484
253	0xbd2d35d7	-0.042287674
254	0xbd39a2b7	-0.045321193
255	0xbe24c813	-0.16091947

arith.constant6 f4 [8, 1, 4, 3]
0	0x3ecde564	0.40214074
1	0x3e09e126	0.13464794
2	0x3d5ae3b0	0.053439796
3	0xbdb6158c	-0.088908285
4	0x3e2bab46	0.16764554
5	0xbd92b464	-0.07163313
6	0xbe457a05	-0.19284828
7	0x3e99df10	0.30052996
8	0xbd28affe	-0.041183464
9	0xbdf2a94b	-0.11848696
10	0x3e5894ba	0.21150485
11	0x3ea467d7	0.32110474
12	0x3d2f7e60	0.04284513
13	0x3ea26dc3	0.31724367
14	0x3e5cbed7	0.21557175
15	0x3ea5719d	0.32313243
16	0x3c9f4b64	0.019445129
17	0x3ca18a30	0.019719213
18	0x3e110e12	0.14165524
19	0xbe8a16bf	-0.2697048
20	0xbe7b2561	-0.24525978
21	0xbea13a37	-0.31489727
22	0xbe0e81e7	-0.13916741
23	0xbe96d144	-0.29456532
24	0x3d6e29af	0.05814522
25	0xbebec115	-0.37256685
26	0x3dc9e4e7	0.09858113
27	0xbe94e374	-0.29079783
28	0xbcc3e828	-0.023914412
29	0x3dc7b671	0.09751595
30	0xbb0a3de0	-0.002109401
31	0x3e789ea2	0.24279264
32	0x3de8213b	0.11334463
33	0x3e03ea3d	0.12882324
34	0x3dea91df	0.11453604
35	0xbcdb08ee	-0.026737656
36	0xbdab83bf	-0.08374738
37	0x3e3560a3	0.17712645
38	0xbea0e3fa	-0.31423932
39	0xbe97aa76	-0.2962224
40	0x3e296667	0.1654297
41	0xbd090dc6	-0.0334604
42	0xbd72c0bf	-0.05926585
43	0xbdef3ecc	-0.116818994
44	0xbdc5fa22	-0.0966685
45	0xbc1483aa	-0.009064594
46	0xbe9ae3b9	-0.30251864
47	0x3e5bcd4e	0.21465036
48	0x3e34fd27	0.17674695
49	0xbd6f2fbf	-0.058395144
50	0xbd050cd5	-0.03248294
51	0xbc0e4532	-0.00868349
52	0x3dbe561f	0.0929377
53	0x3daa434f	0.08313619
54	0xbdaaca60	-0.08339381
55	0x3e9325f4	0.28739893
56	0xbdfe8e6b	-0.12429508
57	0xbe75eac0	-0.24015331
58	0xbd8e97dc	-0.069625586
59	0xbd894384	-0.06702331
60	0xbe44481d	-0.19168134
61	0xbe22b8d6	-0.15890822
62	0x3e768ad6	0.24076399
63	0xbe18c7d8	-0.14919984
64	0xbe0d18d5	-0.13779004
65	0xbde83d97	-0.11339872
66	0x3da750bf	0.08169698
67	0x3d96bd9d	0.073603846
68	0xbddf59ff	-0.10905837
69	0xbe9f1138	-0.31067824
70	0x3dfb77c4	0.12278703
71	0xbe22a5b6	-0.15883526
72	0x3e0157d5	0.12631162
73	0xbea42c51	-0.3206506
74	0x3e762cf2	0.24040583
75	0x3e16e5b3	0.14736061
76	0x3e70a1b9	0.23499192
77	0x3e8b9d71	0.27268556
78	0x3e5236c5	0.20528705
79	0x3d938cd3	0.072045945
80	0x3d9ba26e	0.075993404
81	0x3ec21f23	0.3791438
82	0xbe92696f	-0.28596064
83	0x3d8cf5c3	0.06882813
84	0x3e2a443c	0.16627592
85	0xbd70b18f	-0.058763083
86	0x3d91053d	0.07081077
87	0xbea06654	-0.3132807
88	0xbe2fef72	-0.17181185
89	0x3de2d57d	0.11075876
90	0x3da6f77f	0.08152675
91	0x3df6439f	0.120246165
92	0xbd125b5e	-0.035731666
93	0xbe403d79	-0.1877345
94	0xbdf252f0	-0.11832225
95	0xbda86c20	-0.08223748

arith.constant7 f4 [2, 16]
0	0x3eac1fb9	0.33617952
1	0xbe04ac60	-0.12956381
2	0x3e0e9bbc	0.13926595
3	0xbefa3d04	-0.48874676
4	0xbf0b432a	-0.5439936
5	0xbe712e79	-0.23552884
6	0xbf003ad6	-0.50089777
7	0xbebc5f8c	-0.36791646
8	0x3dea6b82	0.11446287
9	0x3ed24608	0.41069055
10	0x3e8117b6	0.25213403
11	0xbd2ec58a	-0.042668857
12	0xbe58a29c	-0.2115578
13	0xbcd0a190	-0.025467664
14	0xbf023dc1	-0.5087548
15	0x3ef78988	0.48347116
16	0x3c4910c0	0.01227206
17	0x3e54d490	0.20784211
18	0xbebf2d19	-0.37339094
19	0xbdaf5593	-0.08561244
20	0x3e622a5e	0.22086474
21	0xbb6a259d	-0.0035727986
22	0x3e942fd7	0.2894275
23	0xbeef8e0c	-0.4678806
24	0xbd75ef27	-0.060042527
25	0xbe2f7158	-0.17133081
26	0xbe2ad7fa	-0.16683951
27	0xbcfe678c	-0.031055234
28	0x3e13f78e	0.14449903
29	0xbef2378f	-0.47308013
30	0xbf04c18a	-0.5185782
31	0x3dbc6bf0	0.09200275

arith.constant8 f4 [16, 368]
0	0xbc8d6c63	-0.017263597
1	0x3dc64191	0.096804745
2	0x3cab0990	0.020878583
3	0x3d548409	0.05188373
4	0xbd6fa1ca	-0.058503903
5	0xbd989ecd	-0.07452164
6	0xbd0dd976	-0.034631215
7	0x3dc4a2fb	0.096013986
8	0xbdd5fcd5	-0.104486145
9	0x3d9ad1e2	0.07559563
10	0x3d88d244	0.0668073
11	0x3dcc8801	0.09986878
12	0xbdd87625	-0.10569409
13	0x3d189ec4	0.037260786
14	0xbd027fcd	-0.03186016
15	0xbd59445e	-0.053043716
16	0x3d995174	0.07486239
17	0xbdedac3e	-0.11605118
18	0xbd0a23cc	-0.033725545
19	0xbc909fb3	-0.017654276
20	0x3da02fa0	0.07821584
21	0x3b73a404	0.0037176618
22	0xbd9caf3a	-0.07650609
23	0x3da0c22e	0.07849537
24	0xbd9ce660	-0.07661128
25	0xbdac229a	-0.08405037
26	0xbdb727fa	-0.08943172
27	0xbc21ab8c	-0.00986756
28	0xbce309c0	-0.02771461
29	0xbd54e512	-0.05197627
30	0xbbbead6f	-0.0058190147
31	0x3d8c2358	0.06842679
32	0x3dc5149b	0.09623071
33	0x3da1ca17	0.07899874
34	0xbdc56cdb	-0.09639903
35	0x3da0c306	0.07849698
36	0xbd5e879e	-0.054328553
37	0x3d9257c7	0.071456484
38	0x3c13fe28	0.009032764
39	0xbd752045	-0.059845228
40	0x3d6ded69	0.05808774
41	0xbd0d3641	-0.03447557
42	0xbe109131	-0.14117886
43	0x3d2cdffa	0.04220579
44	0x3d1ef557	0.038808193
45	0xbd6e15d1	-0.058126274
46	0xbd943c80	-0.07238102
47	0xbda4da67	-0.080494694
48	0xbd3909be	-0.045175306
49	0x3a9125cc	0.0011073886
50	0x3da60a11	0.08107389
51	0xbdbfcf9d	-0.09365771
52	0xbe17506b	-0.14776771
53	0xbd454825	-0.048164506
54	0x3d62ceaf	0.05537289
55	0x3d190650	0.037359536
56	0xbda3351f	-0.079691164
57	0x3d79cc03	0.060985576
58	0xbddebed9	-0.10876245
59	0xbd0cec03	-0.034404766
60	0x3d509f88	0.05093339
61	0x3d288225	0.04113974
62	0xbe06e096	-0.1317161
63	0x3d906ee8	0.07052404
64	0xbe12c8b3	-0.14334373
65	0xbdce4e8e	-0.10073577
66	0x3caa7bcd	0.020810986
67	0xbd23e771	-0.04001564
68	0xbda2fbad	-0.079581596
69	0x3cc574b5	0.024103502
70	0x3c3e9f6d	0.01163469
71	0x3d3a0ff9	0.04542539
72	0xbdf612fc	-0.1201534
73	0xbdac740d	-0.084205724
74	0xbd80ce9d	-0.06289408
75	0xbddecd0c	-0.10878953
76	0x3a960c40	0.0011447743
77	0xbd97cd38	-0.07412189
78	0xbdea09fd	-0.11427686
79	0x3bd20f9a	0.0064105513
80	0x3b1f17e8	0.0024275724
81	0x3d4d1289	0.050066505
82	0xbe134976	-0.14383492
83	0xbc6765b1	-0.014123366
84	0x3d88618a	0.06659229
85	0xbd9ba72c	-0.07600245
86	0xbd25d2e1	-0.040484313
87	0x3d0c71ce	0.03428822
88	0x3d404db7	0.046949115
89	0xbd0f655b	-0.03500877
90	0xbd9c5376	-0.076331064
91	0xbd4e9600	-0.05043602
92	0x3c9e6bdd	0.019338543
93	0xbd663deb	-0.056211393
94	0xbd52bfe9	-0.05145255
95	0x3db10f1d	0.08645461
96	0xbd9b94bc	-0.07596728
97	0x3c1b8d78	0.009494178
98	0xbca2e0ee	-0.019882645
99	0x3d50d7cf	0.05098706
100	0xbcd75e94	-0.026290216
101	0x3bd47407	0.006483558
102	0xbdd739e8	-0.105090916
103	0x3d7ea78d	0.062171508
104	0x3c86b17a	0.01644205
105	0xbd7d3949	-0.06182221
106	0x3d5efff9	0.054443333
107	0xbe1cc46e	-0.15309307
108	0x3da47f79	0.08032126
109	0xbe03b7a9	-0.1286303
110	0x3b3da08e	0.002893481
111	0xbd286fcd	-0.041122247
112	0xbd0cca81	-0.03437281
113	0xbcecdede	-0.028914865
114	0x3d429387	0.047503974
115	0xbd7eed92	-0.062238283
116	0xbc187751	-0.009305791
117	0xbcd7b96a	-0.02633353
118	0x3d9a2d67	0.07528191
119	0xbdfa10ed	-0.122102596
120	0x3d3b92bd	0.045794237
121	0xbd893c5e	-0.06700967
122	0x3cd193ba	0.025583137
123	0x3cc6051f	0.024172364
124	0xbbaee8d7	-0.0053378153
125	0xbe17d86b	-0.1482865
126	0x3cb549b3	0.02212987
127	0x3d8af0f0	0.067842364
128	0x3dafd95a	0.085863784
129	0xbca8058c	-0.020510457
130	0xbd66916e	-0.056291036
131	0xbcdb901f	-0.02680212
132	0xbc04406f	-0.008072003
133	0xbda481f5	-0.080326
134	0xbdb2b2b5	-0.08725492
135	0xbe09e618	-0.1346668
136	0xbce9efab	-0.028556665
137	0xbcbffb2d	-0.0234352
138	0xbd8387ec	-0.064224094
139	0xbde01f41	-0.10943461
140	0xbe2867c4	-0.16445833
141	0x3db01b83	0.085989974
142	0x3d9b1ddc	0.075740546
143	0x3db4e8da	0.088334754
144	0xbd993b27	-0.074819855
145	0x3dc82963	0.09773519
146	0xbb5e3544	-0.003390626
147	0x3bfcb24e	0.0077116853
148	0x3ba7f90e	0.005126125
149	0x3d2eed58	0.042706817
150	0xbdfb6f84	-0.12277129
151	0x398d484f	0.0002694749
152	0x3d9b5f62	0.07586552
153	0xbd7c1a7d	-0.0615487
154	0x3dbe2a9b	0.0928547
155	0x3c94a320	0.01814419
156	0xbc95cffa	-0.018287648
157	0xbdafb8c2	-0.08580162
158	0x3d8b1390	0.067908406
159	0xbaff8b4d	-0.0019496471
160	0xbdf35e5b	-0.11883231
161	0xbda138bb	-0.078721486
162	0x3c9e8dd1	0.019354733
163	0xbdfc347c	-0.12314698
164	0xbd3dcb26	-0.046336316
165	0x3d8fe8d6	0.07026832
166	0x3c1573dd	0.009121862
167	0x3d330136	0.043702327
168	0xbdda6982	-0.10664655
169	0x3b813259	0.0039427695
170	0x3d87a6e1	0.066236265
171	0x3d9b7ca7	0.07592135
172	0x3cd01627	0.025401188
173	0xbe1c7140	-0.15277576
174	0xbca7d876	-0.020488959
175	0x3ce5cc2a	0.028051455
176	0xbd464557	-0.04840597
177	0xbd9efba5	-0.07762841
178	0xbde6f20d	-0.11276636
179	0x3d3c49e3	0.0459689
180	0xbc265624	-0.010152373
181	0x3d868b47	0.06569534
182	0x3c228c35	0.009921123
183	0x3c4e5938	0.012594514
184	0x3d8701c7	0.06592136
185	0xbde04d74	-0.10952273
186	0xbe203122	-0.15643743
187	0xbd90f105	-0.07077221
188	0xbcc692ae	-0.024239864
189	0xbe1f5c3d	-0.1556253
190	0xbcc19611	-0.023631128
191	0xbe1484e9	-0.14503826
192	0xbe0d1bf0	-0.13780189
193	0x3d13548b	0.0359693
194	0x3d5849ec	0.052804872
195	0x3d8c1a97	0.06841009
196	0x3d84e0b1	0.06488169
197	0x3d520964	0.051278487
198	0xbdb85d81	-0.090022095
199	0xbddb4c62	-0.10707928
200	0x3c432e8b	0.011912952
201	0x3d22ab80	0.039714336
202	0x3d7ab273	0.06120534
203	0xbc8d6698	-0.017260835
204	0xbd809abf	-0.062795155
205	0xbdaefa10	-0.085437894
206	0xbe039168	-0.12848437
207	0x3cdc61d5	0.026902119
208	0xbd662818	-0.05619058
209	0xbda6a486	-0.08136849
210	0x3c5b2b47	0.013377017
211	0xbd868524	-0.06568363
212	0xbc139aea	-0.009009102
213	0xbd1f8bf9	-0.038951848
214	0xbdccea43	-0.100056194
215	0xbe10dd11	-0.1414683
216	0x3d9c5303	0.07633021
217	0xbb428c8e	-0.0029685828
218	0xbd012267	-0.03152695
219	0xbc2e8cdc	-0.010653701
220	0x3d4ac8a1	0.04950774
221	0xbcbd3f6b	-0.02310153
222	0xbdc31181	-0.09524823
223	0xbc19309a	-0.009349966
224	0xbd8ce9c1	-0.068805225
225	0xbdec7bca	-0.115470484
226	0x3dae4c26	0.08510618
227	0xbd769433	-0.060199928
228	0xbdce62c0	-0.10077429
229	0xbd320e86	-0.043470882
230	0x3dccfeab	0.100095116
231	0xbdc3e08c	-0.09564313
232	0xbdf475fe	-0.11936568
233	0xbdb2e3d9	-0.08734865
234	0x3b7739e8	0.0037723724
235	0xbda62176	-0.08111851
236	0xbd31c861	-0.043403987
237	0xbd8cdb52	-0.068777695
238	0x3d43503b	0.047683936
239	0xbdda2f0e	-0.10653506
240	0xbc93dc84	-0.018049486
241	0xbdb840e9	-0.08996756
242	0xbe25c519	-0.16188468
243	0xbd9b90eb	-0.07596
244	0xbc56d45a	-0.013112152
245	0xbdd5b1c8	-0.104343
246	0xbcf53c81	-0.029936077
247	0x3d60ef83	0.054915916
248	0xbddb8221	-0.107181795
249	0xbcee6937	-0.029102905
250	0x3cc0f28c	0.023553155
251	0xbd46ad04	-0.048504844
252	0x3d6402fc	0.05566691
253	0x3c7ce77a	0.015436048
254	0xbdf57a47	-0.11986213
255	0xbdabaacf	-0.083821885

arith.constant9 f4 [16]
0	0xbd648729	-0.05579296
1	0xbd111bc2	-0.035426863
2	0xbc98a06e	-0.018631186
3	0xbcfbf9ea	-0.030758817
4	0xbccb02e4	-0.024781652
5	0xbc700037	-0.014648489
6	0xbd4c14d1	-0.04982454
7	0xbd27170a	-0.040793456
8	0xbc5d0f30	-0.0134923905
9	0xbccb34b6	-0.024805408
10	0xbd4526cc	-0.048132703
11	0x3eb91826	0.36151236
12	0xbc9604c9	-0.018312829
13	0xbcbff2ec	-0.023431264
14	0x3d1ba406	0.03799822
15	0xbd2124ae	-0.03934162

arith.constant10 f4 [2]
0	0xbefa1a6b	-0.4884828
1	0x3efa1a69	0.48848274
